checkpoint_critic_0.pth (torch_old, 159740 bytes, 5 tensors)

fcs1.weight f4 [256, 24]
000000 5a c1 81 bb dd cd 58 3c f2 78 16 3d 46 53 51 bd
       -0.003959817 0.013232675 0.036736436 -0.051104806
000010 bb 11 06 be 94 c3 e5 bd 01 c0 34 bc 51 14 87 3c
       -0.13092701 -0.11218944 -0.011032105 0.01648918
000020 82 69 d6 bc 0a 7b ee 3c af 12 66 bd 02 48 c2 3c
       -0.026173357 0.029111404 -0.05617016 0.023715977
000030 f3 6f 94 3b 80 5a 6d bd 2b df 32 3d 44 e6 02 3d
       0.004529947 -0.057947636 0.04366986 0.03195788
000040 90 1f b4 3b f9 eb 38 bc dd 35 37 3d 38 b7 dc bb
       0.0054969266 -0.011286729 0.044729102 -0.0067357086
000050 ac 15 c6 bb 94 76 48 bb 35 49 4f bd ba aa a9 3c
       -0.006045064 -0.0030588256 -0.050606925 0.020711292
000060 7f 38 20 3e ff b6 f9 3d 21 71 d4 bb bc 2c 22 3d
       0.15646552 0.12193107 -0.0064832126 0.039593443
000070 f6 81 15 3d 8f b5 85 bd d9 71 1c 3d c1 51 96 3c
       0.036500894 -0.0652877 0.03819451 0.01834953
000080 78 29 97 3c b5 52 39 bd b3 c1 be 3b 38 2b 52 bc
       0.018452391 -0.04524489 0.0058214306 -0.012827687
000090 dd 51 ca bc 03 5b 00 3e 9f 95 f7 bc 98 cf 73 bc
       -0.024697239 0.12534718 -0.030222712 -0.014881037
0000a0 2a 90 a5 3d b2 0a 27 bd de 7e 02 bd db cf 9e bc
       0.08084138 -0.040781684 -0.03185927 -0.019386223
0000b0 a2 9e 72 3c 9a 1d a4 3d 56 f8 2c 3c 7e ad 0b 3c
       0.014808329 0.080134585 0.010557255 0.0085252505
0000c0 fb bb 4c 3c 16 c3 1c be c1 e5 2a bc 47 0f 7d bd
       0.01249599 -0.15308794 -0.010430754 -0.061782148
0000d0 cc c7 0d bd a3 46 28 be 7f 2b 32 3c 4d 20 46 bd
       -0.03461437 -0.16433196 0.010874628 -0.04837065
0000e0 c7 42 84 bc 83 9a 64 bd d8 b7 29 bc e7 de 99 3b
       -0.016145123 -0.055811416 -0.010358773 0.0046957615
0000f0 02 23 e8 3b 06 6b 1b be 4a ad 82 3b 3f 63 a6 3d
       0.0070842514 -0.15177545 0.003987943 0.081243984
000100 fc 8e ec 3b c1 92 d3 bd f9 27 34 3d a7 be a4 3d
       0.0072191935 -0.103307255 0.043983433 0.080441765
000110 fe 05 93 3d cf fe d6 bd 71 34 7a bc 33 c5 a9 3d
       0.07178877 -0.1049782 -0.015271292 0.08289566
000120 e2 fa 2a 3d 22 29 e8 bc 99 a2 2c 3b 1b 3e 1d bc
       0.041743167 -0.028339926 0.0026342033 -0.009597327
000130 3a c0 84 bd 74 7a 7c 3d a4 ba 60 3c 7b f2 2d 3c
       -0.06481977 0.061640218 0.013716374 0.010616894
000140 9a 09 fc ba 14 4e b4 3c d1 63 9c bc 10 34 f6 3c
       -0.0019228936 0.022009887 -0.019090565 0.030054122
000150 e4 3e c0 38 3a 17 8f bb 7e cd 37 3d 61 15 43 bd
       9.166988e-05 -0.0043667825 0.044873707 -0.04762781
000160 39 de a6 bd 8c 35 88 bc 9d 41 90 ba a1 dd b7 3b
       -0.08147854 -0.016627096 -0.0011005882 0.005611137
000170 45 eb 87 3d 8b 90 11 be 1a 39 64 3c b9 01 28 bb
       0.06636671 -0.14215295 0.01392963 -0.0025635792
000180 0c f2 52 3d c0 46 6e bc 7f bb 5f bc c2 2b e1 3c
       0.051500365 -0.014543235 -0.013655542 0.027486686
000190 72 27 06 3d 1b fd 3f bc f9 ac 40 3d 86 ad 91 bc
       0.03275246 -0.01171806 0.04703996 -0.017782938
0001a0 a0 cd 15 bd ec 64 9b 3d 03 c8 3b 3b 0f 5b 05 bd
       -0.036573052 0.07587609 0.0028653152 -0.032557543
0001b0 24 b7 d7 3d 62 ca c1 bd 83 3d 9b bc f8 e1 83 3d
       0.10532978 -0.094624296 -0.01895023 0.064395845
0001c0 75 7e 13 3d 48 da eb bb 54 10 25 bc 2f 4a a4 3c
       0.03600927 -0.007197652 -0.010074694 0.020054905
0001d0 c9 7f 1c bc 8f ac 0b bd e1 27 00 3d cd de b6 bc
       -0.009551951 -0.03410011 0.03128803 -0.022323037
0001e0 ce 00 8c 3d 6e 53 28 bc d2 cd d7 3c f3 44 b3 bc
       0.06836091 -0.010273797 0.02634326 -0.021883463
0001f0 95 e8 15 3e 74 5d ee 3d 0d 81 6d bc 0a 88 81 bd
       0.14639504 0.116389185 -0.0144961 -0.063247755
000200 d8 d8 86 3d d7 5b 3b bd 56 67 01 3d 4a 12 6f bc
       0.065843284 -0.045741882 0.03159269 -0.014591763
000210 a0 bb f7 b8 01 43 ed 3d ef b9 e0 3b d9 60 1c bd
       -0.00011812826 0.115850456 0.0068581025 -0.0381783
000220 8c 47 bc 3c a8 0f 50 3d e8 c0 21 39 70 64 93 3d
       0.022983335 0.05079618 0.0001542602 0.07196891
000230 5e ef 28 be 78 fb cf 3d fa 2e 81 3c 73 62 8a ba
       -0.16497561 0.10155386 0.01576947 -0.0010557905
000240 40 37 84 3d fb 1c d4 3d 1c d0 2c bd bc 1c 63 3c
       0.064558506 0.1035709 -0.042190656 0.013861831
000250 55 6f 56 bd 92 00 f4 bc 39 a0 cc ba 76 f9 89 3d
       -0.05235227 -0.029785428 -0.0015611715 0.06737034
000260 7b d4 fc 3c 25 df 49 3d 86 13 22 3d 05 69 c2 3d
       0.030863037 0.049285073 0.0395694 0.09492687
000270 60 4d 5a bc e9 79 dc bd d0 e4 2b bd f7 09 45 3d
       -0.013324112 -0.1076544 -0.04196626 0.048105206
000280 7c 12 25 3d 95 c3 96 3d d8 05 e5 bc bf 8c ef bc
       0.04030083 0.07361523 -0.027956888 -0.029241918
000290 43 95 47 3d ec 71 cd bd 94 7c fa bc 14 ba 45 3c
       0.04872633 -0.100314945 -0.030576982 0.01206829
0002a0 98 f7 d5 bb 0f 3b ac bc d6 d8 15 bc 95 ef 58 3c
       -0.0065297596 -0.021024255 -0.009145936 0.013240715
0002b0 da af 67 bd 56 1a 32 3d 3b 82 ca 3c 94 ed 12 3d
       -0.05656419 0.043482147 0.024720302 0.035871103
0002c0 58 2a 82 3c 63 d2 f6 bc 25 50 58 bd 59 d1 11 bd
       0.015889332 -0.030129617 -0.052810807 -0.03560004
0002d0 86 a2 7f bd 90 5a ca bc f5 a5 99 3c 87 10 0c 3d
       -0.062410854 -0.024701387 0.018755892 0.03419545
0002e0 49 92 00 bd 02 c5 a0 bd 38 79 5f bb 8f 92 88 3d
       -0.03138951 -0.07850076 -0.0034099352 0.06668579
0002f0 d2 72 97 bd 76 2b 4c 3d 21 26 95 3c 41 11 ff 3c
       -0.07394947 0.049846135 0.018206658 0.031136157
000300 46 d6 0c 3d 0b 6a d0 3d 0a 5e 5f bc 80 18 38 3c
       0.034384035 0.10176476 -0.0136332605 0.01123631
000310 97 08 3b 3d bc 80 e4 3d 16 36 f5 3b de 29 55 bc
       0.04566249 0.11157367 0.007483254 -0.01301047
000320 b1 0b 02 bd c5 2a 82 3d 06 2a 28 3d fd a6 48 3d
       -0.03174943 0.06355814 0.0410557 0.048987377
000330 30 41 05 3c 8d 49 d1 3d 5e bf 2e bd 89 b9 f3 bc
       0.008133218 0.10219107 -0.04266297 -0.029751556
000340 f9 6f 88 3c b5 90 41 bd 7b df 84 bc 0c 68 06 bc
       0.016654955 -0.047257144 -0.016219845 -0.008203518
000350 ce 76 3e 3d 0a a3 89 3a 30 90 6a bc d7 e0 05 bd
       0.04650002 0.001050086 -0.014316604 -0.032685127
000360 19 21 12 bc 0c 4c 3e bd 07 9e 2b bd 8b 9b de bc
       -0.008919024 -0.046459243 -0.041898753 -0.027173778
000370 eb ae 25 be ac 04 ca bd d8 8c d5 3c 29 f3 0f bd
       -0.16180007 -0.09864172 0.026068136 -0.035144005
000380 2e 11 ca 3d 9b 86 c4 bd f3 eb 0f 3d 55 b1 38 3b
       0.09866558 -0.095959865 0.035137128 0.002818187
000390 1b ef 16 be 54 03 a1 bd 3f 8e 07 bd 2f 7d fb bb
       -0.14739649 -0.07861963 -0.03309464 -0.007674835
0003a0 0c e0 0d 3c 6f 1c 8a 3d 48 ae 6f bd cc 5f c0 3d
       0.008659374 0.067437045 -0.058515817 0.09393272
0003b0 c1 76 e5 bd 22 97 9c bd 0d 29 b6 3c 06 29 6d 3d
       -0.11204291 -0.07646014 0.022236371 0.05790045
0003c0 d9 32 4a bd 60 dc d5 3b 7d f9 b3 3c 1a b6 fa bc
       -0.0493649 0.006526515 0.021969551 -0.03060441
0003d0 72 4d a5 bc 68 ce 96 3d a3 cd 10 3c ae fa 97 3c
       -0.02017853 0.073635876 0.00883809 0.01855215
0003e0 9a 6d 25 bd 75 c0 11 bb 88 d4 25 3d f8 fd e5 3c
       -0.040387727 -0.0022239957 0.04048589 0.028075203
0003f0 da 39 f7 3c 4a d7 e3 bb 44 0f 34 bd 12 4c 28 3d
       0.030178953 -0.0069531547 -0.04395987 0.04108817

fcs1.bias f4 [256]
000000 5e 58 07 be 4f d3 f3 3d da eb 00 3e 5e 54 dc 3d
       -0.13217303 0.11905538 0.1258997 0.10758279
000010 ef 6d 39 bc e0 03 45 be c0 44 58 be 37 a5 66 bd
       -0.011317714 -0.1923976 -0.21119976 -0.056309905
000020 10 60 6e be 6d c0 3e be 9b 16 dc 3d 31 74 00 3c
       -0.23278832 -0.18628092 0.10746499 0.007840202
000030 d6 c8 1c 3d da f5 45 be a1 a5 d4 3c ec e0 20 3e
       0.03827747 -0.19332066 0.025957884 0.15710801
000040 50 8c d6 3c 26 53 76 bd 80 43 e8 bd b9 da e2 bd
       0.026189953 -0.06013789 -0.113409996 -0.11076874
000050 ac 07 c7 3c a6 d4 2f be ca 5b a0 bc 73 90 4f be
       0.02429565 -0.17170963 -0.019575018 -0.20269947
000060 46 64 55 bd 59 2a 6d be c8 f8 3a 3d 62 4c f7 bc
       -0.05209758 -0.23160686 0.045647413 -0.03018779
000070 ba ee 28 be 2e 52 dd bd 2d 0a f4 bd d5 34 f5 bd
       -0.16497317 -0.1080669 -0.119160034 -0.119729675
000080 b4 56 e1 bc dd 43 cf 3b 14 ec ed bd 50 c0 58 3d
       -0.027507164 0.0063252286 -0.11617294 0.05291778
000090 99 7b 48 be 38 be 35 3e da da 34 be 4c 09 fd 3d
       -0.19578399 0.17748344 -0.1766161 0.12355289
0000a0 d3 8f 2f be 98 67 2a be e3 a1 8f bc e2 e5 fd bd
       -0.17144708 -0.1664108 -0.017533248 -0.12397362
0000b0 31 88 0f be 91 94 0a be 12 39 b6 bd da 61 1e be
       -0.14016797 -0.13533236 -0.08897604 -0.15467015
0000c0 d6 ea 2c 3e db c1 d3 3d 12 ba a6 bd b7 a7 dd 3d
       0.16886458 0.10339709 -0.08140959 0.10823005
0000d0 2c f1 be bd cd 3c 2f be 34 90 03 3d 50 00 10 be
       -0.09323344 -0.17113037 0.032119945 -0.14062619
0000e0 0d f4 59 3d 66 b2 c8 bd fe 17 4c be 65 5f 1c 3e
       0.05321126 -0.09799652 -0.19931027 0.15270765
0000f0 c4 8c 78 3d 87 c6 18 3d 20 34 4f 3d aa b4 0b be
       0.06068112 0.037298705 0.05058682 -0.13643137
000100 53 33 6f 3d 5b c4 66 3b d9 bf 02 be 0a 6a d4 3d
       0.058398556 0.0035212252 -0.12768497 0.10371788
000110 43 da 72 be d0 82 0c be f6 a7 79 bd 54 81 54 be
       -0.23716073 -0.13721776 -0.060951196 -0.2075246
000120 c9 f2 65 be dc 00 8e bd a6 31 37 bd ff 37 2a 3e
       -0.22455896 -0.06933758 -0.044725083 0.16622923
000130 6a a5 ca 3d fb 97 17 3e e4 83 93 3d 66 54 c4 3c
       0.098948315 0.1480407 0.072028905 0.023966026
000140 59 23 38 bd 51 13 4c bd 31 85 35 be 0e 42 33 be
       -0.044955585 -0.04982311 -0.1772659 -0.17505667
000150 48 7c 16 3e 16 f6 27 be b2 cb ce bd 95 fb 28 3d
       0.14695847 -0.16402468 -0.100974455 0.041255552
000160 a6 e5 0e be 48 a4 75 3d 2f 29 f9 bc 3f de 66 3c
       -0.13954791 0.059971124 -0.030415146 0.014091074
000170 f7 20 c9 bd e9 d2 29 3e 48 47 e2 bd 4d 23 6e be
       -0.09820741 0.16584362 -0.11048752 -0.23255654
000180 53 2d 18 3e 6d 33 3d be c2 ee 4d 3e 2d 30 ce 3d
       0.1486104 -0.18476649 0.2011061 0.100677826
000190 0a 11 e0 3d e3 9d 3d bc 0a bf 0e 3c e5 1c 7c 3d
       0.1094075 -0.011573288 0.008712539 0.061550993
0001a0 fd 4c f6 bd 37 6f 0f 3e a5 42 c3 3d c0 99 b0 bc
       -0.12026403 0.14007269 0.09534196 -0.021557689
0001b0 23 5e 66 3c ed 6a 1a bd 6d 06 91 bd 60 c0 14 be
       0.01406053 -0.03769963 -0.07081304 -0.1452651
0001c0 4e a3 62 bd c2 f6 4d be 75 8c 7e bd 89 57 bf 3d
       -0.05533152 -0.20113662 -0.06214567 0.09342868
0001d0 92 f0 e5 3d ab ae 56 be 20 48 22 be b0 67 11 3e
       0.11227526 -0.20965068 -0.15847826 0.1419971
0001e0 15 9c bf bc de 88 81 bd 70 4d b5 3d 2a ce 3e 3e
       -0.023389855 -0.063249335 0.08852661 0.18633333
0001f0 7a 94 63 3d 8d 56 71 3d 71 06 fd bc 2b 8f e0 3a
       0.05556152 0.058920432 -0.03088686 0.0017132511
000200 5a 6d 18 3d a3 f8 63 be d4 ca 69 be 22 6d d2 3d
       0.03721366 -0.22262816 -0.22831279 0.10274722
000210 5c b7 42 be a2 aa 3b 3d 3a 55 e6 3d 2e f9 1f 3e
       -0.19015259 0.045817025 0.112467244 0.15622398
000220 ef 13 1f 3d 7d 3a 5d bd 3e 51 65 3d 26 34 b3 3d
       0.03883737 -0.054010857 0.05598568 0.08750181
000230 a2 56 1b ba 40 61 82 be cd 41 c0 3d 4f 7b 51 bd
       -0.000592569 -0.2546482 0.093875505 -0.051142987
000240 10 27 19 3d cd 6b 5b be e9 07 97 bd 08 b3 09 be
       0.03739077 -0.21427841 -0.073745556 -0.13447201
000250 a5 30 c3 ba 27 06 59 3e b1 e3 64 bb 37 05 e4 3d
       -0.0014891817 0.21193753 -0.0034925754 0.11133807
000260 71 53 1d 3e a9 08 ff bd 4c ca 23 3e ca da 6e 3c
       0.15363862 -0.12452824 0.15995139 0.014578531
000270 a3 65 16 3e 2f 40 8d bc cd 50 87 bd 97 2e 55 3e
       0.14687209 -0.01724252 -0.066072084 0.20818554
000280 7a 3b 39 be 76 65 62 bd 2b 6f 3f bd de 31 41 3d
       -0.18089095 -0.055272542 -0.046736877 0.047166698
000290 b1 c3 58 bd 7f 84 08 3e 96 61 83 3b af 4e e0 3d
       -0.052921 0.13331793 0.004009436 0.10952508
0002a0 46 63 7d 3d 62 2b 74 3d 4d c6 8d 3d b2 fa 7d be
       0.061862253 0.059611686 0.069225885 -0.24802664
0002b0 7c 4c e2 bd 73 c6 4c be 4f 75 75 be 53 66 46 be
       -0.110497445 -0.19997577 -0.23970531 -0.19374971
0002c0 79 ac b5 bc 2f b8 38 3e 1f 68 24 be 90 43 b9 3d
       -0.022176968 0.1803901 -0.16055344 0.0904609
0002d0 1a 7c 16 be 5d 80 d6 3d 4c c6 0d 3e 66 62 b3 3d
       -0.14695778 0.10473702 0.13845176 0.087590024
0002e0 92 b6 35 3e f2 0c 35 be 1a 56 39 be 32 c5 82 bd
       0.17745426 -0.1768072 -0.18099251 -0.06385268
0002f0 6d 0c 72 3d 3d 6e 10 3e f8 f7 d6 3d 4a 49 84 3d
       0.05909388 0.14104553 0.10496515 0.06459291
000300 f6 f5 55 bc 1e 1a 2d be 31 a8 23 3e 9c a9 40 be
       -0.01305913 -0.16904494 0.15982129 -0.18814701
000310 fc 42 2b be 95 46 d9 3d d8 7a 13 3e 1f 09 3b 3d
       -0.16724771 0.106091656 0.1440233 0.045662995
000320 db 94 3e 3b 39 31 9b bd 1a 5b c0 3c 73 f6 11 be
       0.0029080424 -0.07577748 0.02348094 -0.14254169
000330 25 5c 38 3e bf ea 39 3e 0c e0 84 bd af 40 5a 3e
       0.180039 0.18155955 -0.06488046 0.21313737
000340 f7 de 14 bd 9d 5c 3c be b4 22 b3 3c 69 10 14 bd
       -0.03634545 -0.18394704 0.021867134 -0.036148462
000350 31 06 5a 3e e7 f3 30 bd df 26 f0 bc 55 b1 36 be
       0.21291424 -0.043201353 -0.02931541 -0.17841084
000360 e1 66 27 3e d1 71 a8 3d 43 69 fe 3b 99 70 85 bd
       0.16347839 0.08224834 0.007764013 -0.06515617
000370 68 ab be bd f6 8a 53 3d 85 98 45 3e 7c 8b b8 bc
       -0.09310037 0.051646195 0.19296463 -0.022527449
000380 55 ab a9 bb b5 f0 47 be 15 86 7d 3d 67 3e f2 bd
       -0.005177895 -0.19525416 0.06189545 -0.118283086
000390 b9 98 aa 3d 7e c5 ff bd cf b3 2d 3e d0 dc 1f 3e
       0.08329911 -0.124888405 0.16963123 0.15611577
0003a0 89 dd dc bd e2 76 b4 bd 68 c3 45 3d 63 ef f4 3c
       -0.10784442 -0.088117376 0.048282057 0.029899305
0003b0 1d 21 e1 bd 33 7c 23 3b 47 87 52 bc b4 68 b2 3d
       -0.10992644 0.0024945855 -0.012849635 0.08711377
0003c0 f6 35 0b be 89 34 04 be 54 2f 48 3d aa c6 3a bd
       -0.13594803 -0.12910666 0.04887326 -0.045599617
0003d0 10 f0 b7 bd a1 3d 16 3e 63 ea 32 bd c3 75 df bd
       -0.08981335 0.14671947 -0.04368056 -0.10911133
0003e0 d0 25 44 bd 2b 90 0c be 5d 98 7a bd d3 28 8b be
       -0.047887623 -0.1372687 -0.06118046 -0.27179584
0003f0 a9 bc 08 3e d0 ff 56 3e c5 b5 5f be bf af d2 3d
       0.13353218 0.20996022 -0.21846683 0.10287427

fc2.weight f4 [128, 258]
000000 81 87 ae bc 02 49 a3 be a9 57 36 3c 58 ac 44 3c
       -0.021304848 -0.31891638 0.011129298 0.012003981
000010 08 97 81 3d d8 7d 20 ba e7 60 57 3d 8f c1 f5 3d
       0.06327635 -0.0006122268 0.052582648 0.11999809
000020 82 cc 7b bd 62 f7 c2 3c 53 6f 5c 3d 5b fd 8c be
       -0.06147433 0.023799602 0.053817105 -0.27537045
000030 6f e5 02 bd 9b 4e 5a bd d1 2d 01 bd 81 5e e8 3d
       -0.031957086 -0.05329762 -0.031537835 0.1134615
000040 e0 f6 6e bd 31 59 00 bb 74 99 53 3d df 98 81 bc
       -0.058340907 -0.0019584412 0.051660016 -0.015819965
000050 0a 43 d4 3c 1a 84 96 bd de c8 e6 3a 1a 9e 4b 3d
       0.025910873 -0.07349415 0.001760747 0.049711324
000060 62 f5 d8 bd cc 23 a0 bc 71 d2 59 bd 83 00 ce 3d
       -0.10593678 -0.01954832 -0.05317921 0.10058691
000070 38 2e 31 3d 0b 7c 86 3c 6f 55 45 3a 93 0c 1d 3b
       0.04325697 0.01641657 0.0007527684 0.0023963794
000080 82 9d 8b 3d b7 8e 13 bd a5 22 77 bd 4b 23 6b 3d
       0.068171516 -0.036024775 -0.060335774 0.057406705
000090 ce 7c 8a 3c 46 1e 1e 3c c7 5c 91 bd 78 39 3d bd
       0.016905215 0.009650772 -0.07097774 -0.046197385
0000a0 97 1a 8a 3c d9 62 12 bc 07 35 f4 bb 9b a9 33 bd
       0.016858382 -0.0089347 -0.0074526104 -0.04386292
0000b0 d4 97 29 bd 01 10 91 bd 21 5a de 39 b4 c1 37 bd
       -0.04140456 -0.07083131 0.0004241029 -0.044862464
0000c0 a0 7e 7c bd 85 89 26 3c 99 18 8d be 90 37 82 3c
       -0.061644197 0.010164623 -0.2755783 0.015895635
0000d0 63 73 b8 3c 1d 8d 43 3d 9a b2 38 bd dd 64 46 3d
       0.022515958 0.047741998 -0.045092203 0.048436034
0000e0 1d 4e 05 bd 44 4b 41 3d 1f 17 08 3d 64 b5 4b 3d
       -0.032545198 0.04719092 0.033225175 0.049733534
0000f0 4a ee 21 bd f8 54 3d 3c c0 bc 22 bd bb 62 68 bd
       -0.03953389 0.011555903 -0.039730787 -0.05673478
000100 5e 3a 2a bd 70 60 87 bd 21 31 06 bd 84 b3 40 bd
       -0.04155957 -0.06610191 -0.032761697 -0.0470462
000110 34 55 28 3c db ab 04 bd d6 33 bb 3b b8 f3 e0 3c
       0.01027422 -0.032390457 0.0057129664 0.027459964
000120 2e f5 35 bd 05 c5 cd 3c f9 58 56 bd 32 10 6b 3b
       -0.044423275 0.02511836 -0.052330945 0.0035867807
000130 11 6e 04 3d 2e 96 39 3d 9e 8f 79 3c 07 17 bb bd
       0.03233153 0.045309238 0.015231995 -0.091352515
000140 31 f0 8a 3d 8c c0 2e ba 10 9b 1f bc c2 36 08 bc
       0.06784094 -0.0006666265 -0.00974156 -0.0083138365
000150 c5 37 4b 3d 19 41 0b 3e e2 54 90 3c e2 d5 a6 3d
       0.049613733 0.13599052 0.0176186 0.08146264
000160 32 cb 99 bd e1 e4 6a 3d fa 0d 1a 3d fb e1 b4 bd
       -0.075094596 0.057347182 0.037610985 -0.08832165
000170 cb 50 db bd c3 a3 8b bc f7 ee aa 3c 5f a2 04 be
       -0.107087694 -0.017045861 0.0208659 -0.12952565
000180 92 e4 86 3d 98 58 1a 3c 56 e6 8f bd 79 7e 7f bd
       0.06586565 0.009420536 -0.07026355 -0.062376473
000190 31 db e9 3d b0 44 b8 bd 32 e6 1c bd 1a ff 79 bb
       0.114187606 -0.08997476 -0.03830547 -0.0038146437
0001a0 4d 63 3f bd c5 fd 26 bd 8a b5 a8 bc 2e 0b 8b bd
       -0.04672556 -0.040769357 -0.020594377 -0.06789242
0001b0 c7 cb 6b 3c b1 89 67 3d 4a a2 8f 3c de c2 13 3d
       0.014391846 0.056527797 0.01753344 0.03607451
0001c0 bd c0 c0 bc 50 0d b8 bd fe 15 46 bd 7a 16 9c 3d
       -0.023529405 -0.08986914 -0.048360817 0.076214746
0001d0 19 12 96 bd 9d bd ff bc d2 c9 a9 3d f2 19 b4 3d
       -0.073276706 -0.031218344 0.08290447 0.08794011
0001e0 83 06 d2 bc ea 78 41 3d ac 97 65 bd e7 78 d0 3c
       -0.02563787 0.047234453 -0.05605285 0.025448276
0001f0 ab 8a 79 bd 2c 65 e9 bd 66 0d 1b bd d1 b8 c2 bb
       -0.06092326 -0.1139625 -0.037854575 -0.005942442
000200 1e b9 c3 bd e5 41 dc bc 1e 7e 77 bd a6 1a 81 3c
       -0.09556793 -0.02688689 -0.06042301 0.015759777
000210 fd 02 54 bb c4 75 09 3d 02 d1 de 3c 51 89 18 bd
       -0.0032350414 0.033559576 0.027199272 -0.03724033
000220 93 10 ac 3d cd 94 d8 bd 57 65 25 3d c2 d1 5d 3d
       0.08401599 -0.105752565 0.04037985 0.05415512
000230 e5 d4 97 3a e6 e6 99 be 02 70 0c 3d 5e 5c 37 3d
       0.0011583833 -0.30058974 0.034286506 0.044765823
000240 fd cf 02 bc 48 42 48 bd 16 fa b0 ba 31 4f 80 bb
       -0.007984159 -0.048891336 -0.0013502266 -0.0039156904
000250 e4 ab a7 3d 3b b4 13 3c c6 24 a1 bd 69 e3 08 3d
       0.081870824 0.009015138 -0.07868342 0.03342
000260 61 ad 0c 3c 68 1b e0 3c 52 13 31 bd 3c d1 8b bd
       0.008586259 0.027356818 -0.043231316 -0.06827018
000270 da 2a 41 3d fc fe 8f 3d c1 ec f6 bb cd bc 01 3e
       0.047160007 0.07031056 -0.0075355475 0.12669678
000280 47 74 88 bd c9 b6 e7 3c 65 fd b3 3d 16 fd c0 bd
       -0.06662803 0.028285401 0.087885655 -0.09423272
000290 f5 a2 22 bd ec ce 08 3a 27 48 e6 bc b6 b8 6b bd
       -0.03970619 0.0005218822 -0.028110577 -0.0575492
0002a0 23 02 2a 3d a8 bb b6 bb 5d 83 87 bd 9e 93 48 bd
       0.041505944 -0.0055765696 -0.066168524 -0.048968904
0002b0 1e 42 30 3d 2f e0 6e bc d0 33 5f bd bb 89 05 3d
       0.043031804 -0.014579817 -0.05449277 0.032602053
0002c0 35 8d d4 3d 5a 11 fb bb 20 23 0c 3c 97 32 0a bd
       0.103784956 -0.0076619806 0.008553296 -0.033739652
0002d0 2e e1 b7 bd 81 ad ce bb 26 32 93 bd 00 b5 d2 bd
       -0.089784965 -0.0063073044 -0.071872994 -0.10288429
0002e0 35 2c 07 bc 74 05 33 3c 2d 73 15 3e 00 e0 95 b9
       -0.008250286 0.010926593 0.14594717 -0.00028586388
0002f0 4c fc 0e be 64 3f c5 3c 11 46 be 3c 84 35 b8 bc
       -0.13963431 0.024078079 0.02322677 -0.022486456
000300 7b 16 32 bd fe a9 fd 3c 05 af 84 bd c5 21 b0 b7
       -0.04347847 0.030964848 -0.06478695 -2.099656e-05
000310 96 a5 54 3d e2 6e 7e 3d bb 7c b3 3c b7 31 9a be
       0.051915728 0.062117465 0.021910062 -0.30116054
000320 df e7 9b 3d 2f 2b 9b 3c f0 58 4d 3d 85 0a 68 bc
       0.07612585 0.01894149 0.050133646 -0.014162664
000330 61 32 c2 3c 40 8d 34 bd 87 23 15 3c c9 e1 8b be
       0.023705663 -0.04408002 0.009102709 -0.27320698
000340 f2 f9 9a bc 08 3f aa bc 27 37 5e 3d fe 90 2b bd
       -0.018918011 -0.020782009 0.054251816 -0.041886322
000350 5f 4f ba bc 86 88 48 3c 9f 92 dc 3c 88 09 d1 3c
       -0.022742925 0.012239581 0.026925383 0.02551724
000360 48 7b 5a bd 3a 40 e4 bc 13 e1 d4 3c c9 c9 b1 3d
       -0.053340226 -0.027862657 0.02598623 0.086810656
000370 6c 95 12 bc d4 16 7f bd 66 3a 2b 3d 35 05 59 bc
       -0.008946758 -0.06227763 0.04180374 -0.01324587
000380 77 4d df bc cd 5e b1 bd 57 68 a1 ba 38 e7 9d bb
       -0.027258618 -0.0866066 -0.0012314421 -0.004818823
000390 5e 63 e9 bd 32 e4 3d bd c0 db 2d bd 07 6b f9 bc
       -0.11395906 -0.046360202 -0.042445898 -0.030446542
0003a0 61 c5 06 3c 31 85 05 3d 3f e6 35 3d fb 28 94 3d
       0.00822577 0.032597724 0.044409033 0.07234379
0003b0 53 ad c9 bd 1d 19 8b bc 55 94 3a 3d 73 0a 1c 3d
       -0.09847512 -0.016979748 0.045551617 0.038095903
0003c0 fa c2 31 3c 0d 90 86 bd 52 f0 ca 3c 35 63 7c bc
       0.010849709 -0.06570444 0.024772797 -0.015404512
0003d0 55 d4 b4 3d d3 de 2f bd 77 28 ba bd 72 4f 27 3c
       0.088295616 -0.04293711 -0.09089749 0.010211812
0003e0 3e 73 95 bc ae 55 fa bc 8a a1 bd 3b 26 bf 74 bd
       -0.018243428 -0.030558433 0.005787079 -0.059752606
0003f0 ed 80 41 bd 1a 0a cf 3d 85 cd 3f 3d 6d ce aa 3d
       -0.047242094 0.101093486 0.046826858 0.08340154

fc2.bias f4 [128]
000000 de 9e a5 3d 50 4f 24 ba 34 4f 3d bd 58 3a 49 bc
       0.08086942 -0.0006267922 -0.046218112 -0.012281977
000010 45 59 76 bd f3 4d 54 3b 9c 63 26 3d b8 4c a3 3c
       -0.060143728 0.0032395094 0.04062234 0.019934043
000020 06 19 e5 3c 6a e4 5f bd f9 e4 7d 3d 81 91 b9 bd
       0.027966034 -0.054661192 0.061985943 -0.09060956
000030 ad 1c 76 3d e6 f4 6c bd 20 b3 1b bd b4 ab 88 bc
       0.06008594 -0.05785074 -0.038012624 -0.016683437
000040 30 9c 54 bc a6 93 f6 bc 3d fb 0a 3d d8 8b bc 3c
       -0.012976691 -0.030099701 0.033931006 0.023015901
000050 24 03 88 bd b1 4f 67 3d 67 06 9d bc 8d b6 4a bb
       -0.06641224 0.056472484 -0.019168092 -0.0030931563
000060 ec 3d 6d 3a 3f d4 ae bd 5b f1 72 bc b5 67 99 3c
       0.00090500596 -0.085365765 -0.014828051 0.01872621
000070 7e ea 60 ba 49 47 44 3d 90 c1 b1 3c 76 6c 88 3d
       -0.0008579864 0.047919545 0.021698743 0.06661312
000080 af d5 d7 ba 00 5d 54 bc fc 7d 36 bd ab 61 33 3d
       -0.0016466881 -0.012961626 -0.04455374 0.043794315
000090 61 98 09 3c 13 b0 c5 bb 5a 47 8a 3d bc a5 f4 bc
       0.008398146 -0.0060329526 0.067518905 -0.029864185
0000a0 ec ca 06 bd 81 be c8 bd de 80 3c 3b ec 6a a9 3a
       -0.032908365 -0.09801961 0.0028763334 0.0012925542
0000b0 9e cb 98 3b b5 23 87 bc 56 97 84 bd 6f 68 13 bd
       0.004662945 -0.016496519 -0.064741775 -0.035988268
0000c0 c7 3b a1 3c 4b 77 bf 3b e6 f2 96 bd 16 0b 22 3d
       0.019681824 0.0058430783 -0.07370548 0.039561354
0000d0 ba 07 89 bc 1b 3f 26 bd 3d 48 ac 3c f0 46 1d bd
       -0.016727317 -0.040587526 0.02103054 -0.03839773
0000e0 61 1a 79 3d dc f4 a8 bd 6e f7 85 3d 4c fb 49 bd
       0.060816173 -0.08249828 0.06541334 -0.04931192
0000f0 27 7e 4e bb 26 e7 7d bb 58 b4 d1 bc 90 fd 30 3d
       -0.0031508298 -0.0038742512 -0.02559869 0.043210566
000100 06 c7 8d bd e8 1d 62 bd 0b f7 c4 3c a5 48 02 3d
       -0.06922726 -0.055204302 0.02404358 0.03180756
000110 a3 2e 7e bd 54 85 5b bd f1 95 42 3b bb 05 7c 3c
       -0.062056195 -0.05359395 0.0029691423 0.015382226
000120 85 49 4c bb d5 bf 07 bc 0a a5 17 bd 6c 19 0e bb
       -0.003117175 -0.008285482 -0.037022628 -0.0021682633
000130 f1 cd 50 bd dd c8 13 3d 38 e0 26 3d c7 07 7a bb
       -0.05097765 0.03608023 0.040741175 -0.0038151608
000140 84 21 89 bc 80 f5 b1 bd 2c 3a d6 3c 61 05 e2 bc
       -0.016739614 -0.086894035 0.026150785 -0.027590455
000150 eb 0c b2 3b 93 5d e8 3c d7 6d 15 bd 9b 99 0c bd
       0.005433669 0.028364932 -0.036481705 -0.034326177
000160 df 14 1a 3d 47 d2 23 3d 7f a3 8e bc 75 10 95 3b
       0.03761756 0.039995458 -0.017411945 0.004549081
000170 c5 42 b1 bd 40 53 ac 3c 9b 61 90 bd 34 dd 2c bd
       -0.086553134 0.02103579 -0.07049867 -0.042203143
000180 5d 71 1a bc 1b 84 2c bd e6 d5 0b 3d 89 0c 76 3d
       -0.009426442 -0.042118173 0.034139536 0.06007055
000190 46 ba 4a 3d 8a cc 78 3d c1 c8 f8 3c 25 ea a3 3d
       0.04949405 0.06074194 0.030369164 0.08003644
0001a0 ac 1a 26 3c da 4c 6e bd 80 72 80 bb 63 43 47 3d
       0.010138195 -0.05817876 -0.0039198995 0.04864825
0001b0 b7 ae 84 3d 7f b1 00 3d 3a 27 fa 3c b3 1a 99 bb
       0.06478637 0.031419273 0.030536283 -0.0046723722
0001c0 32 91 be 3c fb a6 4c 3d e5 e4 fd 3a 3b a2 0c 3b
       0.023262594 0.049963932 0.0019370584 0.0021459002
0001d0 e9 ff 66 3d 5a 65 02 bd f9 16 22 3d b4 d4 3e bc
       0.0563964 -0.031834938 0.03957269 -0.011647392
0001e0 cd 31 1c 3d 06 9e bd 3c d3 28 99 bc c0 9d 25 bd
       0.03813343 0.02314664 -0.018696224 -0.040433645
0001f0 9b 56 7c bb 57 9e 91 3d 57 ef 00 bd ca 25 5f 3c
       -0.003850377 0.07110279 -0.031478252 0.013619849

fc3.weight f4 [1, 128]
000000 fc 01 32 3c 71 2f d2 bc 1b 79 21 bd ff e7 72 bd
       0.010864731 -0.025657387 -0.039422136 -0.05930328
000010 5d ae 23 bd 2e 5a fc 3b 97 7f a7 3c ab a5 ba 3c
       -0.039961208 0.00770118 0.020446582 0.022784075
000020 05 a6 68 bd b8 12 0e bc 6d 6c a3 bc 04 f7 cd bc
       -0.056798954 -0.008671455 -0.019949162 -0.0251422
000030 0c cf 5c 3c 3d db f9 bc 33 98 c0 bc 0d 66 92 bc
       0.013477098 -0.030500049 -0.023510074 -0.017870927
000040 a0 f9 92 3c 9b cc 0c bd b3 3a 49 3d ee 93 dc 3c
       0.017941296 -0.034374814 0.049128246 0.026926007
000050 e6 8c f0 bc b5 57 c9 bb 32 e8 c9 bd 5c 2f eb 3c
       -0.02936406 -0.0061444887 -0.09858741 0.028709106
000060 61 9a 9f bc 01 d4 b9 bc a7 84 f6 3c 7f 53 8a 3d
       -0.019482793 -0.0226841 0.03009255 0.06754207
000070 72 01 11 bd cb 73 b1 3c 78 c0 df bc 14 ea fb bc
       -0.03540177 0.02166166 -0.027313456 -0.030751266
000080 5f dc e4 3d a3 3d 96 bc 7a 98 f8 bd cc 59 b0 3c
       0.11174845 -0.018339938 -0.121384576 0.021527193
000090 28 6b 0b be d6 af 23 bd 16 d3 a4 3c e4 95 8b bc
       -0.13615096 -0.039962612 0.020120185 -0.017039247
0000a0 bc ba a5 3c c6 45 b0 bc f4 8e e9 bc 6e 2d c2 bc
       0.020230643 -0.021517646 -0.028510548 -0.023703303
0000b0 07 3b 3e 3c f2 6e 6a 3c 73 e7 81 3c 0d ac 5a bc
       0.011610753 0.014308678 0.015857434 -0.013346684
0000c0 94 63 89 bc 10 00 fd bc 1f 5c 29 3d ff 48 77 bc
       -0.016771115 -0.030883819 0.04134762 -0.015093087
0000d0 27 39 98 bc 57 cd 29 3d 38 67 fa bd eb 2d 20 3d
       -0.01858194 0.041455593 -0.12226719 0.03910629
0000e0 81 3e a6 3c 56 80 15 3d 7e fe ab bc 3c 15 bd 3c
       0.020293476 0.036499344 -0.020995375 0.023081414
0000f0 12 7a 2f bd 20 7f 10 3d fb 77 10 bc 10 7f 8f bd
       -0.042841025 0.035277486 -0.008817668 -0.07006657
000100 8c b9 cd bc 9b d4 ac 3c d0 4b 8d bc 90 c7 0e bd
       -0.02511289 0.021097472 -0.017248064 -0.034858286
000110 48 89 43 bd 68 2b 9a bc 01 e2 de 3c 12 57 9b bd
       -0.047738343 -0.018819526 0.027207376 -0.07584967
000120 65 03 c9 3c fb cd c9 3d 78 f0 2e 3c 7b 1b 0b 3d
       0.024537751 0.09853741 0.010677449 0.033961754
000130 67 b4 5e bd 00 47 df bd 89 73 71 3c a9 41 26 bd
       -0.054371264 -0.10902214 0.014737018 -0.040589962
000140 34 65 eb 3c 3d 64 24 bd 15 0d 23 bc 54 e8 20 bd
       0.02873478 -0.040134657 -0.0099518495 -0.039284065
000150 e2 88 ea 3c d5 33 11 3d 36 b0 9b bc ee a1 5d 3c
       0.028629724 0.03544982 -0.019004922 0.013527377
000160 9c c4 29 3d 1c 56 de 3d 93 24 c2 bd 4f 0d 2e bd
       0.041447267 0.10856268 -0.09479632 -0.04249316
000170 e6 8d 1e bc ac cf 97 3c 96 68 81 3d 3b e3 84 3c
       -0.009677386 0.018531643 0.06318776 0.016221633
000180 24 ad 4e 3c 6c 58 cb 3c 83 21 13 bd e9 56 86 bc
       0.012614522 0.024822436 -0.03592063 -0.016398864
000190 cf 07 8c 3c f0 7b 3b 3d ec b7 02 bd 42 8c 92 bc
       0.017093567 0.045772493 -0.031913683 -0.017889146
0001a0 94 9a 9e 3c 96 96 31 bd 7d 42 aa 3c 23 91 2b bd
       0.019360818 -0.0433565 0.020783657 -0.04188646
0001b0 46 ed ea bc 2d 0d e5 3c 7b 39 bf bc ff 69 01 3d
       -0.028677594 0.027960384 -0.023342839 0.031595226
0001c0 ab 9d 56 bc 60 1b 28 3d 30 b3 f2 3c b8 b7 a1 bc
       -0.013099114 0.04104173 0.029626459 -0.019740924
0001d0 61 c8 d8 bc ce 53 a6 3c 2e c5 aa bc 94 42 91 3c
       -0.026462736 0.020303633 -0.020845976 0.017731942
0001e0 9f 47 08 3d 62 f5 4c 3d 78 2d 17 3d 22 0a 5a 3d
       0.03327143 0.050038703 0.036908597 0.05323232
0001f0 86 36 c7 3c 71 c6 af bd af 20 06 3d f4 f4 83 3c
       0.024317991 -0.085827716 0.032746013 0.016108014
