checkpoint_actor_1.pth (torch_old, 159230 bytes, 6 tensors)

fc1.weight f4 [256, 24]
-0.004907154 0.11923348 0.026158448 -0.011479838 -0.07112697 0.08017939 0.03070296 0.065528415
-0.07014065 0.13127063 0.019445347 -0.033894468 0.11717027 0.0032513796 0.08150095 0.019302983
-0.09467847 0.09515678 0.00265227 0.06341159 0.14123921 -0.174215 0.068056725 0.018243324
0.024521254 0.1478424 -0.08285707 -0.06529964 -0.070699304 -0.17403536 -0.07433985 -0.15805626
-0.014292025 0.038547732 0.041792974 -0.13563998 0.008248168 -0.050850768 -0.0056269937 -0.12557866
0.02771617 -0.057050075 -0.0063951183 -0.041107114 0.16713777 0.14641488 0.03881895 -0.079425246
-0.05614933 0.0069855596 0.038913935 -0.16970623 0.16253486 -0.021765212 -0.043850794 -0.22366393
-0.009289142 -0.0131528815 -0.09013078 -0.19711946 0.20790523 -0.020841492 -0.070947535 -0.17728312
0.020091888 -0.07598309 -0.013270037 -0.04475213 0.18740435 -0.0055124564 0.03311 0.030370768
0.082455166 0.020298941 -0.00064003683 0.12039174 0.18932812 0.02575618 0.023179995 0.11343093
0.07636996 0.057864398 -0.024509745 0.14559262 0.13598266 0.015736666 0.013938686 0.21743746
0.1101261 0.07708214 -0.075003766 0.17848547 0.06744036 0.13461137 0.021477701 0.20804371
-0.041681726 0.0592305 0.018789047 0.08052598 -0.04314513 -0.0321271 -0.086953804 0.008291402
0.0025937904 0.089314595 0.072395846 -0.0688768 -0.01681788 0.038195603 0.094379544 -0.0015655688
0.05844176 0.12483079 -0.014526831 -0.054579813 -0.2135089 0.031130217 0.024116505 0.013674135
-0.0064592888 0.088019945 -0.014511506 -0.080066204 0.048225794 0.045654755 0.06370317 -0.061837353
-0.003580818 0.13882996 0.0044616824 0.0015297475 -0.144751 0.026401808 0.07205738 0.02750395
0.023168575 0.044284347 0.027285872 -0.048532892 -0.15637429 0.100679286 0.035526864 -0.07472848
-0.11949166 0.05585749 -0.0019302017 -0.0968153 0.13573566 -0.18088754 0.025516694 -0.0072773057
0.008161145 0.07334911 0.057342142 0.1420555 -0.036501758 -0.05123566 0.03609769 0.15029146
-0.05663208 0.09159194 0.014085247 0.03412569 -0.0030922184 -0.042097233 0.012032027 0.06489172
-0.015147592 -0.044686314 -0.07858574 0.071639635 0.042820282 -0.06795017 -0.05067462 0.025827251
-0.019035298 -0.0030713466 -0.07628778 0.0039157476 -0.095156856 0.04203543 -0.06287657 0.011423006
0.025383666 -0.0047269003 0.008848354 -0.047399633 -0.08453877 0.12057479 0.085394256 -0.066887714
-0.009982705 0.30365273 0.054210413 0.13192861 0.012425548 0.03125138 0.056664515 0.10656466
0.04503995 0.28796086 0.0057210354 -0.039583918 0.17226896 0.026095089 0.025934841 -0.014842438
0.08482999 0.22675672 0.001029095 0.025036784 0.20268436 0.004125677 -0.07665206 -0.041235283
0.0014121963 0.13528207 -0.045251854 0.03499117 -0.23168454 0.08356105 -0.053426728 0.052581456
-0.09506823 0.11852652 0.071805894 0.019440511 -0.07279285 0.11268214 0.02653912 -0.050857875
-0.02414796 0.03938238 -0.016247174 0.09970983 0.029614728 0.07096256 0.08070582 0.07358702
0.013419259 -0.07199596 -0.04710914 0.032721158 -0.036039095 0.078950234 -0.08948826 0.08849115
0.037906684 -0.09352621 -0.06596727 -0.0091810115 0.029272646 0.04363183 -0.10733161 0.012303177
00000000: 31cc a0bb af30 f43d 3e4a d63c ee15 3cbc
00000010: 04ab 91bd 1835 a43d c684 fb3c c333 863d
00000020: e7a5 8fbd cf6b 063e d94b 9f3c edd4 0abd
00000030: f7f6 ef3d 1915 553b f8e9 a63d 4a21 9e3c
00000040: c9e6 c1bd 8fe1 c23d b5d1 2d3b f0dd 813d
00000050: 03a1 103e 6b65 32be 5361 8b3d 0673 953c
00000060: cce0 c83c 0064 173e f8b0 a9bd d1bb 85bd
00000070: ccca 90bd 5336 32be 7e3f 98bd 80d9 21be
00000080: 1929 6abc 3ae4 1d3d 1c2f 2b3d 35e5 0abe
00000090: 5323 073c e548 50bd a562 b8bb b197 00be
000000a0: 050d e33c 57ad 69bd 248e d1bb ef5f 28bd
000000b0: 2a26 2b3e c8ed 153e 9f00 1f3d b4a9 a2bd
000000c0: d7fc 65bd 1fe7 e43b 3864 1f3d 78c7 2dbe
000000d0: 8a6f 263e f54c b2bc e49c 33bd 2808 65be
000000e0: 7c31 18bc 2f7f 57bc 7d96 b8bd afd9 49be
000000f0: 1ce5 543e c7bb aabc f14c 91bd b589 35be
00000100: be97 a43c 069d 9bbd 926a 59bc 024e 37bd
00000110: ede6 3f3e d6a1 b4bb 5a9e 073d 1ecc f83c
00000120: 41de a83d f749 a63c 25c8 27ba f28f f63d
00000130: 3bdf 413e a0fe d23c f9e3 bd3c 7a4e e83d
00000140: db67 9c3d 3803 6d3d a9c8 c8bc 3b16 153e
00000150: 0a3f 0b3e 2eea 803c 165f 643c eda7 5e3e
00000160: cb89 e13d 3edd 9d3d 939b 99bd e5c4 363e
00000170: 2c1e 8a3d 90d7 093e 01f2 af3c 6909 553e
00000180: 75ba 2abd ae9b 723d 7deb 993c ceea a43d
00000190: f3b8 30bd b597 03bd d614 b2bd a9d8 073c
000001a0: 95fc 293b 92ea b63d 4644 943d 480f 8dbd
000001b0: a7c5 89bc fe72 1c3d 104a c13d c633 cdba
000001c0: a060 6f3d 49a7 ff3d f201 6ebc 158f 5fbd
000001d0: 14a2 5abe cc04 ff3c fa8f c53c 7b09 603c
000001e0: 71a8 d3bb cd43 b43d abc1 6dbc c0f9 a3bd
000001f0: 6988 453d 7b00 3b3d cf76 823d 2a49 7dbd
00000200: 28ac 6abb 7129 0e3e 4e33 923b cf81 c83a
00000210: 9b39 14be 9b48 d83c d292 933d f74f e13c
00000220: 06cc bd3c 8163 353d 9f86 df3c 6dca 46bd
00000230: 9520 20be f130 ce3d 9e84 113d 3f0b 99bd
00000240: 0bb8 f4bd d3ca 643d d2fe fcba 1a47 c6bd
00000250: 4afe 0a3e 953a 39be 6308 d13c 7776 eebb
00000260: 53b6 053c 0f38 963d 98df 6a3d ff76 113e
00000270: de82 15bd 7cdc 51bd 2cdb 133d 01e6 193e
00000280: 0af7 67bd 8e94 bb3d cfc5 663c 61c7 0b3d
00000290: d1a6 4abb 266e 2cbd fb21 453c f3e5 843d
000002a0: 9b2d 78bc ff08 37bd 8ff1 a0bd cdb7 923d
000002b0: 5264 2f3d 7529 8bbd 3190 4fbd ac93 d33c
000002c0: eaef 9bbc a548 49bb c53c 9cbd ac4f 803b
000002d0: 99e1 c2bd 582d 2c3d 6ec5 80bd 8f27 3b3c
000002e0: 68f1 cf3c 1de4 9abb b0f8 103c 1e26 42bd
000002f0: aa22 adbd eaef f63d 2fe3 ae3d 6dfc 88bd
00000300: 808e 23bc 5f78 9b3e bd0b 5e3d 4b18 073e
00000310: 8794 4b3c 7201 003d 0d19 683d 933e da3d
00000320: d07b 383d 9b6f 933e 8677 bb3b bf22 22bd
00000330: 4667 303e 5ec5 d53c 4e75 d43c b22d 73bc
00000340: 59bb ad3d ea32 683e b3e2 863a f119 cd3c
00000350: 7d8c 4f3e b030 873b c1fb 9cbd 54e6 28bd
00000360: 7219 b93a 6287 0a3e 025a 39bd e752 0f3d
00000370: b63e 6dbe 0e22 ab3d fcd5 5abd a75f 573d
00000380: 22b3 c2bd 08be f23d f80e 933d b541 9f3c
00000390: 6b14 95bd e5c5 e63d 9268 d93c 5950 50bd
000003a0: f1d1 c5bc 6b4f 213d cb18 85bc ab34 cc3d
000003b0: 969a f23c d254 913d 1849 a53d cbb4 963d
000003c0: 74dc 5b3c 9e72 93bd 83f5 40bd 9f06 063d
000003d0: bb9d 13bd a9b0 a13d 9f45 b7bd d93a b53d
000003e0: 0a44 1b3d ab8a bfbd d919 87bd f46b 16bc
000003f0: 30cd ef3c 4ab7 323d add0 dbbd 4493 493c

fc1.bias f4 [256]
0.031163463 0.07862565 0.0941386 0.036320016 -0.07632641 -0.24046679 -0.24299894 -0.018712558
-0.23860107 -0.07286181 0.13851188 -0.0048889974 0.12857121 -0.012183967 0.053946428 0.20860814
0.09135818 0.058922645 -0.13494687 -0.08704969 0.15831898 -0.10463668 -0.00239616 -0.18813618
-0.0002847903 -0.1389773 0.093094796 -0.030666213 -0.14175801 -0.10670846 0.02721766 -0.18856819
0.009886527 0.19642097 -0.17510015 0.053693622 -0.20790264 0.18932849 -0.15392275 -0.046289
-0.29220992 -0.19322579 0.038740125 -0.20648006 -0.09017204 -0.104706004 -0.0055977125 -0.1895848
0.2301299 0.09473031 -0.09701324 0.14941163 -0.11288424 -0.12969947 0.07832336 -0.060563568
0.17741218 0.0029203158 -0.23427807 0.23717263 0.25306776 0.097249895 -0.07846626 -0.1683713
0.0046861838 -0.05160917 -0.10174477 0.11209333 -0.23174702 -0.110474624 0.010121593 -0.15642354
-0.11337346 -0.050464295 -0.023663498 0.17025235 0.044557095 0.24558686 0.107150964 -0.02245884
-0.015895354 -0.06647483 -0.22848012 -0.15890214 0.018604627 -0.08829642 -0.078530304 0.24934465
-0.114168525 -0.058473174 -0.03826078 -0.08143268 0.033941485 0.087942444 0.058666132 -0.2000844
0.14584278 -0.052531466 0.19750826 0.0919655 -0.04355737 0.11490875 -0.03223914 -0.03145703
-0.11765453 0.23066898 0.09600648 0.10389084 0.15831903 0.004959735 -0.004076603 -0.15112536
-0.15195234 -0.19704302 -0.10174776 0.094312325 0.21569484 -0.26652262 -0.10501118 0.19810559
-0.15571453 -0.032912016 0.18611707 0.16839808 0.028544676 0.0065911678 -0.052083764 0.046525348
0.10446882 -0.17544836 -0.25772 0.08538182 -0.22216475 0.075437404 0.18134369 0.18869086
0.14773025 0.06842134 0.09004745 0.14931476 -0.004485344 -0.06928241 0.20412785 0.083553806
0.09634581 -0.28602666 -0.13091841 -0.16480081 0.024118848 0.21142618 0.05682499 0.16690658
0.12411947 -0.1183242 0.21638446 0.10672884 0.16192229 0.08075933 0.059469324 0.14334923
-0.2147553 -0.06588295 -0.05943502 -0.010786007 -0.09022348 0.11410969 -0.020326285 0.10331004
0.088865906 0.18402837 0.040928382 -0.19359483 -0.14968422 -0.11434134 -0.21455991 -0.07748947
-0.01976457 0.1444578 -0.07020987 0.12229182 -0.11321005 0.045556303 0.15009893 0.10345022
0.19517653 -0.104628816 -0.21733238 -0.057802454 -0.019041648 0.18802142 0.16008934 0.06785063
-0.019338133 -0.10060198 0.22627066 -0.20159186 -0.1188703 0.09343737 0.11411904 0.10144727
0.02130008 -0.0054263147 -0.056687143 -0.07511313 0.2255611 0.22393413 -0.075957485 0.07939964
-0.0047953143 -0.18702796 0.0023370807 0.011193449 0.08220927 0.078191325 -0.036948096 -0.12909818
0.11868255 0.023998264 0.03802461 -0.029838499 -0.09174475 0.07090558 0.28240097 0.06675617
-0.0332511 -0.19900616 0.055727057 0.0020005787 -0.06549911 -0.18859239 0.16895553 0.19395322
-0.07053975 0.04265074 0.05027746 0.046219178 -0.14724748 0.041222926 -0.13528015 0.118852966
-0.083417125 -0.062426068 0.07545763 -0.106832765 -0.014638445 0.1275453 -0.08097323 -0.061893083
-0.0854115 -0.110517554 -0.17484254 -0.1656369 0.19341616 0.170757 -0.1278242 0.061884165
00000000: 854a ff3c 7c06 a13d bdcb c03d 4cc4 143d
00000010: 0551 9cbd ed3c 76be b7d4 78be 144b 99bc
00000020: d753 74be 9338 95bd 0fd6 0d3e e233 a0bb
00000030: 2ca8 033e 439f 47bc eef6 5c3d 5f9d 553e
00000040: ff19 bb3d df58 713d 832f 0abe 1c47 b2bd
00000050: 5f1e 223e c14b d6bd e508 1dbb c5a6 40be
00000060: e84f 95b9 1150 0ebe 7ca8 be3d b637 fbbc
00000070: 0329 11be f789 dabd 92f7 de3c 0518 41be
00000080: 1afb 213c 9422 493e 744d 33be d8ed 5b3d
00000090: 6ee4 54be 54df 413e ed9d 1dbe 8999 3dbd
000000a0: 8a9c 95be fbdc 45be f7ad 1e3d 826f 53be
000000b0: 1eac b8bd 1a70 d6bd 046d b7bb 8522 42be
000000c0: 2ca7 6b3e f701 c23d e1ae c6bd 5dff 183e
000000d0: da2f e7bd f0cf 04be ff67 a03d 8111 78bd
000000e0: 8aab 353e c562 3f3b 97e6 6fbe 62dd 723e
000000f0: 1992 813e f42a c73d ebb2 a0bd 8769 2cbe
00000100: 8f8e 993b 2364 53bd 905f d0bd 3091 e53d
00000110: 174f 6dbe 8540 e2bd 0ad5 253c 7e2d 20be
00000120: 5830 e8bd a6b3 4ebd f4d9 c1bc a256 2e3e
00000130: 8081 363d 1f7b 7b3e f771 db3d 9afb b7bc
00000140: f936 82bc f523 88bd b1f6 69be 3eb7 22be
00000150: bb68 983c c1d4 b4bd 7fd4 a0bd 3454 7f3e
00000160: 30d1 e9bd 9181 6fbd 56b7 1cbd 2dc6 a6bd
00000170: 3a06 0b3d 2b1b b43d e64b 703d ede2 4cbe
00000180: cf57 153e 3c2b 57bd 9b3f 4a3e 6858 bc3d
00000190: 3669 32bd 4755 eb3d 300d 04bd 16d9 00bd
000001a0: dcf4 f0bd 7d34 6c3e 0c9f c43d b9c4 d43d
000001b0: 621e 223e 4685 a23b 0695 85bb 9bc0 1abe
000001c0: 6599 1bbe a5c5 49be 2161 d0bd d226 c13d
000001d0: 1cdf 5c3e a775 88be 1a10 d7bd 31dc 4a3e
000001e0: a173 1fbe c0ce 06bd 7995 3e3e 8c70 2c3e
000001f0: 86d6 e93c b9fa d73b c955 55bd 5d91 3e3d
00000200: c0f3 d53d bca8 33be e0f3 83be aadc ae3d
00000210: 287f 63be ed7e 9a3d 29b2 393e 2d38 413e
00000220: 9946 173e 7d20 8c3d cc6a b83d f8e5 183e
00000230: cbf9 92bb f0e3 8dbd e406 513e 421e ab3d
00000240: f450 c53d 1672 92be 7a0f 06be 8bc1 28be
00000250: e494 c53c 1b80 583e 52c1 683d 8fe9 2a3e
00000260: 5932 fe3d f553 f2bd e393 5d3e a694 da3d
00000270: f5ce 253e 2665 a53d 1b96 733d 24ca 123e
00000280: d0e8 5bbe a4ed 86bd 2372 73bd cbb7 30bc
00000290: 16c7 b8bd 57b2 e93d 4f83 a6bc 3794 d33d
000002a0: 54ff b53d ef71 3c3e 85a4 273d b93d 46be
000002b0: d246 19be cb2b eabd 98b5 5bbe cdb2 9ebd
000002c0: 4fe9 a1bc bfec 133e 31ca 8fbd 2274 fa3d
000002d0: acda e7bd 3f99 3a3d 89b3 193e b5dd d33d
000002e0: 5bdc 473e a247 d6bd 618c 5ebe 44c2 6cbd
000002f0: 3bfd 9bbc b088 403e 76ee 233e 45f5 8a3d
00000300: 016b 9ebc 6908 cebd 7fb3 673e 196e 4ebe
00000310: 4672 f3bd 185c bf3d 3eb7 e93d 96c3 cf3d
00000320: 817d ae3c 3acf b1bb c730 68bd ead4 99bd
00000330: 7df9 663e fd4e 653e 998f 9bbd 479c a23d
00000340: 0322 9dbb 4284 3fbe b529 193b ba64 373c
00000350: 555d a83d c622 a03d e356 17bd 5032 04be
00000360: d60f f33d 0298 c43c b2bf 1b3d de6f f4bc
00000370: ace4 bbbd f236 913d dc96 903e 75b7 883d
00000380: 4e32 08bd 45c8 4bbe 0e42 643d 241c 033b
00000390: 6624 86bd 5d1e 41be ae02 2d3e ac9b 463e
000003a0: 2577 90bd 8bb2 2e3d bdef 4d3d 5250 3d3d
000003b0: 0bc8 16be 5fd9 283d e186 0abe 2f69 f33d
000003c0: 99d6 aabd 7ab2 7fbd 8889 9a3d 23cb dabd
000003d0: 17d6 6fbc 3c9b 023e 4bd5 a5bd 9a83 7dbd
000003e0: 39ec aebd 0757 e2bd ec09 33be b89c 29be
000003f0: e30e 463e ecda 2e3e 59e4 02be 407a 7d3d

fc2.weight f4 [128, 256]
-0.022788277 -0.014951397 0.04815077 0.062264927 0.044042967 -0.005899201 0.03114777 0.034254387
0.025884017 0.14007403 0.014596552 -0.1822656 -0.16995506 -0.104707964 -0.08260367 0.031935662
0.110978685 -0.1344947 -0.041734483 -0.13062753 -0.096624866 0.19730814 0.0795597 0.07518526
-0.085574426 -0.048653454 -0.09509332 -0.0015108635 -0.27812573 -0.1149295 0.117311865 -0.077667855
0.059829697 0.025590044 0.10129928 0.057986327 0.0053647375 0.010747161 0.07725668 0.15796322
-0.27645898 0.102941155 -0.012154066 -0.0059088594 -0.052675802 0.10298603 0.06656433 -0.21310446
0.0509021 0.033355083 -0.027937945 -0.109231226 -0.011903231 -0.015571973 -0.0038757755 0.07315677
0.058189187 -0.026909191 -0.1277145 -0.056708727 -0.07643628 0.030620132 0.14155123 0.07626306
-0.1837668 -0.085393384 -0.01715811 0.06398787 -0.07677999 0.05982024 0.0028009946 -0.010109413
-0.059601404 0.1724589 -0.04685436 -0.1868543 -0.034589738 -0.03728629 0.045804113 -0.019807387
-0.27836192 -0.054263413 -0.045307193 -0.0018259069 -0.12878633 -0.06688488 -0.26546198 -0.036491573
-0.010940088 0.009538574 0.16641858 -0.09389377 -0.08042835 0.054908253 -0.091989785 -0.045551445
0.077178985 -0.08816208 0.07010418 -0.04989973 -0.42289093 0.11624409 0.06969787 0.10618464
0.15015082 -0.019112078 -0.12835309 0.17788643 -0.06793565 0.13038634 -0.05167516 -0.044251416
0.04540984 0.14278871 0.003059486 -0.013779709 -0.11714841 0.154102 -0.027215187 0.047692545
-0.005531263 -0.0341195 0.024940241 0.0023885788 0.09208046 0.081984796 0.04640707 0.018091353
0.044605903 -0.10365739 0.0077077537 0.059962876 -0.080998436 0.1407969 0.061421033 -0.05804591
0.0021371886 -0.063076235 -0.092135645 0.01081278 -0.05769949 0.05768994 0.13863574 -0.061507672
0.07544079 0.09770474 -0.096947104 0.05523685 -0.039760433 0.08628669 0.026323017 -0.08990879
-0.031988267 -0.025180295 -0.008674832 0.044137724 -0.090643734 -0.014950228 -0.054614022 0.12082771
0.026368435 0.041803908 0.12422434 -0.09436535 0.14241149 -0.1088015 -0.13362007 0.0037479375
0.12951201 0.030602954 -0.0053866706 -0.063340314 -0.116702445 -0.05812939 -0.016442472 -0.030016465
0.02594306 0.020755814 0.09078215 0.08911872 -0.021620452 0.012310496 -0.014331376 -0.05016276
0.06930421 0.0057402262 0.06582194 0.032994814 0.013014334 0.022562131 -0.0033574537 -0.20068374
-0.048205346 -0.09379479 -0.13669606 0.026158161 -0.05959571 0.021669403 -0.014004422 0.0030492535
0.030166768 -0.0077988147 -0.0040410743 0.07053144 0.028355133 -0.094544664 -0.1199373 0.015051349
0.011767232 0.051123545 0.05866578 -0.10395358 0.06259763 0.062058117 0.023849105 0.0007523332
0.031830553 0.108607 -0.14718485 -0.11378567 -0.069982074 0.15871963 0.19587436 0.15802337
0.063368045 -0.024272345 -0.1191829 0.12814103 -0.1739429 -0.090128876 0.077278845 0.042117793
-0.22908993 0.015654698 -0.19931218 0.07887857 0.053972386 0.052056484 0.049281254 -0.06513913
-0.0033986499 -0.02090613 0.09642412 -0.14881791 0.098808095 0.1145092 0.06186787 -0.22083442
0.26966712 -0.13017993 -0.08399116 -0.35166666 -0.018564522 0.025781449 0.026351685 -0.08861503
00000000: 7bae babc b4f6 74bc be39 453d 8209 7f3d
00000010: 6666 343d 164e c1bb 9c29 ff3c 544e 0c3d
00000020: b80a d43c 916f 0f3e 6026 6f3c d5a3 3abe
00000030: b308 2ebe 2171 d6bd 1d2c a9bd f8ce 023d
00000040: cb48 e33d fbb8 09be c7f1 2abd 39c3 05be
00000050: 42e3 c5bd 250b 4a3e 32f0 a23d bbfa 993d
00000060: a541 afbd d848 47bd 49c0 c2bd 2b08 c6ba
00000070: 7f66 8ebe 2860 ebbd 3441 f03d 5310 9fbd
00000080: fc0f 753d 36a2 d13c ff75 cf3d 1283 6d3d
00000090: aeca af3b dc14 303c c038 9e3d 1cc1 213e
000000a0: 088c 8dbe d0d2 d23d d921 47bc 1b9f c1bb
000000b0: 95c2 57bd 57ea d23d e152 883d 0e38 5abe
000000c0: b87e 503d 579f 083d 1ede e4bc 9fb4 dfbd
000000d0: c505 43bc 9721 7fbc b900 7ebb 37d3 953d
000000e0: c957 6e3d aa70 dcbc 97c7 02be 6947 68bd
000000f0: a08a 9cbd 12d7 fa3c cef2 103e cf2f 9c3d
00000100: 5d2d 3cbe bae2 aebd 2a8f 8cbc 130c 833d
00000110: d43e 9dbd 1106 753d e490 373b f4a1 25bc
00000120: 9a20 74bd 1199 303e 5bea 3fbd bc56 3fbe
00000130: f8ad 0dbd 82b9 18bd 189d 3b3d 1a43 a2bc
00000140: 7485 8ebe 5043 5ebd 0994 39bd 4553 efba
00000150: 90e0 03be f1fa 88bd a2ea 87be 3078 15bd
00000160: 0e3e 33bc ae47 1c3c a269 2a3e 604b c0bd
00000170: 9eb7 a4bd 7ae7 603d 2465 bcbd 2794 3abd
00000180: 0410 9e3d 528e b4bd c892 8f3d a963 4cbd
00000190: 2985 d8be 6211 ee3d c2bd 8e3d 5577 d93d
000001a0: 23c1 193e ef90 9cbc fe6e 03be dc27 363e
000001b0: d921 8bbd ff83 053e 55a9 53bd f940 35bd
000001c0: abff 393d 3437 123e a881 483b 4ac4 61bc
000001d0: 81eb efbd eacc 1d3e 62f2 debc 4259 433d
000001e0: 993f b5bb e4c0 0bbd 7a4f cc3c b489 1c3b
000001f0: ae94 bc3d a5e7 a73d 5715 3e3d 5134 943c
00000200: aeb4 363d 534a d4bd 5391 fc3b a29b 753d
00000210: 82e2 a5bd 102d 103e 9f94 7b3d 8cc1 6dbd
00000220: 1310 0c3b 1d2e 81bd 9db1 bcbd 1628 313c
00000230: 4d56 6cbd 494c 6c3d 87f6 0d3e 78ef 7bbd
00000240: b380 9a3d 6c19 c83d 348c c6bd 0940 623d
00000250: d6db 22bd 13b7 b03d 5ea3 d73c 1a22 b8bd
00000260: 2106 03bd e846 cebc e220 0ebc c2c9 343d
00000270: 6ca3 b9bd cdf1 74bc f4b2 5fbd 8574 f73d
00000280: 9e02 d83c 933a 2b3d 5569 fe3d 9f42 c1bd
00000290: 51d4 113e 52d3 debd b3d3 08be f59f 753b
000002a0: cc9e 043e 0cb3 fa3c ab82 b0bb 91b8 81bd
000002b0: b101 efbd 1519 6ebd 5db2 86bc 17e5 f5bc
000002c0: 8a86 d43c 1908 aa3c feeb b93d e083 b63d
000002d0: 601d b1bc f6b1 493c 26ce 6abc 7777 4dbd
000002e0: 5eef 8d3d 8218 bc3b a7cd 863d 9225 073d
000002f0: 133a 553c 38d4 b83c ba08 5cbb 0a80 4dbe
00000300: f872 45bd 7c17 c0bd 0dfa 0bbe a449 d63c
00000310: a21a 74bd 0884 b13c ce72 65bc fcd5 473b
00000320: 4c20 f73c 338d ffbb fd6a 84bb ca72 903d
00000330: 0649 e83c a2a0 c1bd b0a1 f5bd ef99 763c
00000340: 59cb 403c ec66 513d 874b 703d 9de5 d4bd
00000350: 3033 803d a730 7e3d 335f c33c 3a38 453a
00000360: c160 023d 596d de3d a0b7 16be 7608 e9bd
00000370: c352 8fbd 6687 223e 4a93 483e e1d0 213e
00000380: 1bc7 813d ccd6 c6bc 2a16 f4bd 6737 033e
00000390: 161e 32be 7d95 b8bd 5f44 9e3d b583 2c3d
000003a0: 8d96 6abe 483e 803c 7e18 4cbe 168b a13d
000003b0: 2612 5d3d 2e39 553d 24db 493d aa67 85bd
000003c0: e2bb 5ebb 5543 abbc 027a c53d b963 18be
000003d0: e65b ca3d cd83 ea3d 2a69 7d3d 6b22 62be
000003e0: cf11 8a3e e34d 05be 8f03 acbd a70d b4be
000003f0: a014 98bc 9e33 d33c 7ddf d73c cc7b b5bd

fc2.bias f4 [128]
0.044282425 0.0317053 -0.0781455 0.046267748 -0.0335468 0.09644364 0.061328582 -0.039600514
0.022971438 -0.0032434745 0.068150364 0.07522355 -0.045377553 -0.010150418 -0.03447941 0.070596345
-0.052058466 -0.047426805 -0.08025344 0.030656585 0.05356117 0.030086033 0.013823707 -0.010468411
0.0961083 0.027411906 -0.0527528 0.012048776 0.010516288 0.0038674877 0.05149934 0.099285364
-0.05064567 0.033370562 -0.07043188 -0.052081082 0.059327036 0.02427799 -0.026111677 -0.034806345
0.051038086 0.028594313 0.034869634 0.0710241 0.04650523 -0.018591441 0.011723364 0.0718534
-0.012130415 -0.0019325854 -0.1398353 0.040396396 -0.09854563 0.06461895 -0.02910888 0.087033704
0.035683304 0.10011072 -0.009737877 0.050280266 0.011853797 -0.018655492 -0.099543944 0.05568518
0.026137996 0.008174772 0.002350304 -0.010659864 -0.055383846 0.079259746 0.07200759 -0.004945962
0.06912173 -0.020284465 0.008568807 0.011993166 -0.045792088 0.043622322 -0.011029498 -0.0073684915
0.016914316 -0.02953111 0.045926142 -0.049297314 0.030043725 0.028300289 -0.06305898 -0.1036826
0.047773853 -0.035920076 0.078827 0.08363794 0.0041690306 -0.024883663 -0.024044314 0.020055115
0.11546776 0.027049936 0.052420266 0.015365584 0.065563455 -0.006883417 -0.04106058 0.018903345
-0.027852317 -0.007055652 -0.035558395 0.055751987 -0.0027537441 0.041475784 -0.020800922 -0.049099196
-0.027926622 0.09591159 0.03045775 -0.011314883 0.04170433 -0.054715756 0.06938595 -0.005936231
0.012572803 0.004442033 -0.016089665 0.06442443 0.03357984 0.007061392 0.020319797 0.009798256
00000000: 7d61 353d 6bdd 013d bf0a a0bd 4083 3d3d
00000010: 5f68 09bd 3e84 c53d ae33 7b3d 2634 22bd
00000020: 992e bc3c 7990 54bb 6b92 8b3d ce0e 9a3d
00000030: d0dd 39bd f04d 26bc 483a 0dbd d194 903d
00000040: 423b 55bd 9c42 42bd ea5b a4bd 8523 fb3c
00000050: f562 5b3d fc76 f63c d47c 623c b383 2bbc
00000060: 6ed4 c43d ef8e e03c 5213 58bd 3b68 453c
00000070: 824c 2c3c ad75 7d3b f9f0 523d 2056 cb3d
00000080: d671 4fbd 92af 083d 973e 90bd f952 55bd
00000090: e800 733d a3e2 c63c 28e8 d5bc 1991 0ebd
000000a0: 500d 513d 9f3e ea3c 76d3 0e3d 1575 913d
000000b0: 457c 3e3d 144d 98bc 5a13 403c e027 933d
000000c0: a6be 46bc ce4e fdba fc30 0fbe b176 253d
000000d0: 4bd2 c9bd f156 843d bf75 eebc ba3e b23d
000000e0: a828 123d d906 cd3d 9e8b 1fbc aef2 4d3d
000000f0: 6e36 423c 67d3 98bc b2dd cbbd 2516 643d
00000100: 5a1f d63c 7bef 053c 8f07 1a3b b6a6 2ebc
00000110: 2cda 62bd ef52 a23d b778 933d bd11 a2bb
00000120: b28f 8d3d 9b2b a6bc 2e64 0c3c fc7e 443c
00000130: 7c90 3bbd 52ad 323d 11b5 34bc 6373 f1bb
00000140: e48f 8a3c 3aeb f1bc 0d1d 3c3d fbeb 49bd
00000150: 421e f63c 02d6 e73c 1125 81bd 8b57 d4bd
00000160: 84ae 433d ee20 13bd 0d70 a13d 5e4a ab3d
00000170: 5d9c 883b d3d8 cbbc 95f8 c4bc a04a a43c
00000180: 5c7a ec3d d497 dd3c a2b6 563d eebf 7b3c
00000190: 2246 863d 498e e1bb 242f 28bd 30db 9a3c
000001a0: 8b2a e4bc 1933 e7bb aea5 11bd 325c 643d
000001b0: 2978 34bb 83e2 293d b266 aabc 3d1c 49bd
000001c0: 5fc6 e4bc 4c6d c43d 8882 f93c 0f62 39bc
000001d0: 29d2 2a3d a11d 60bd 391a 8e3d b784 c2bb
000001e0: 28fe 4d3c 798e 913b 79ce 83bc f5f0 833d
000001f0: 048b 093d 4063 e73b b475 a63c dd88 203c

fc3.weight f4 [2, 128]
0.12360482 -0.072798416 -0.07940289 0.08803484 0.041259244 -0.016719544 0.051995456 -0.04240771
-0.13355298 0.00084950967 -0.13506165 -0.11171233 -0.056942564 -0.047793593 0.008809528 0.043507155
-0.43597668 -0.23699364 -0.12866351 0.032477323 -0.003466471 -0.15662764 -0.03213055 -0.12450301
0.06356126 -0.21094458 -0.05240534 -0.16778429 -0.10018713 -0.013706783 -0.030032424 -0.105590016
-0.022087531 0.16095972 -0.070290476 0.20039178 -0.2664327 -0.16938616 -0.12378178 -0.06956094
-0.014735723 0.012365795 0.031018447 0.040494982 -0.052555937 0.029516282 -0.25025883 0.031348612
0.013020613 0.04468392 0.17059743 0.21706271 -0.057019617 -0.0060215057 0.029136505 0.018185368
-0.054887876 1.2143825e-05 -0.09018053 0.0102849575 0.01918485 -0.13148461 -0.02971062 -0.096329436
-0.11002154 0.01655114 -0.029146165 0.01748548 -0.16305014 0.00870787 0.084804185 -0.0061295503
0.04932984 0.032653164 -0.26605487 -0.07038241 0.009983535 -0.08664407 -0.14020294 -0.053760067
-0.008660775 0.042279024 -0.12013864 0.018047893 -0.18463652 0.018851442 0.03098256 -0.311405
-0.14328633 -0.064848974 0.032820996 0.08016489 0.0015555816 -0.12193432 0.018831056 -0.18265232
0.122548 0.00066230795 0.08928188 0.17058218 0.05374915 -0.037678163 -0.013596811 -0.035505917
-0.03234932 -0.0047778203 -0.025858494 -0.4535731 -0.0545738 -0.014474692 0.06432416 -0.14203772
-0.09495743 0.055485364 -0.026248561 -0.06479241 0.017029276 -0.17254446 0.017658694 -0.04274666
-0.10221737 -0.19376294 -0.12858659 -0.016200256 -0.3495255 -0.009409855 0.10992758 0.025116233
0.071782626 -0.07948166 0.15627348 0.0541191 -0.46612635 -0.21644443 0.005062837 -0.07279323
-0.033993836 0.20433465 0.08590466 -0.32761934 0.22360648 0.08811168 -0.18876159 0.18164527
0.14506157 0.072583444 -0.023474358 -0.2061359 -0.29367197 0.14926626 -0.20841722 -0.110190295
-0.004470873 0.38985515 -0.12250308 -0.18863848 0.21609883 -0.17500599 -0.116071336 -0.2646237
0.17273235 0.1146844 -0.06466734 -0.23508167 -0.0751309 -0.049069304 0.23571186 0.12461705
-0.17343503 0.07655481 -0.20310849 -0.027990434 -0.14499469 -0.18567188 0.084807456 -0.02533716
-0.12966466 0.02052142 0.15625723 0.05072626 0.31270385 -0.13631117 -0.11989844 0.0323492
-0.21063128 -0.1490477 -0.2089029 0.10711289 0.027082765 -0.02796348 -0.34303123 0.10355447
0.14208198 0.20470846 -0.14173594 -0.24841198 0.089921206 0.01681854 0.10713912 -0.28690982
0.19173865 -0.1001461 -0.012868247 0.07269419 -0.163682 0.12701671 0.14887688 0.18084621
-0.18402694 -0.1812144 -0.013398507 -0.030924043 0.0014165275 -0.0013139336 0.37636238 0.1854803
-0.073753685 -0.10086947 0.030687427 0.13150935 0.0003492547 0.18255779 0.34038848 0.05353232
0.07477337 -0.103021905 0.053031348 -0.34318164 0.032916848 0.16142707 0.34874514 0.13175195
0.24246098 -0.13056764 0.13670121 -0.02143195 0.12890045 0.27542332 -0.23739812 0.04585816
0.18610942 -0.008177832 -0.2043484 0.17460719 -0.23456207 0.04187535 -0.28587183 0.0343128
0.076717 0.038346384 0.0057345857 -0.18123983 -0.15968044 0.30674294 -0.035479642 -0.22242987
00000000: 8624 fd3d 5617 95bd fb9d a2bd 9c4b b43d
00000010: 74ff 283d 6df7 88bc 30f9 543d b5b3 2dbd
00000020: 1dc2 08be a1b1 5e3a 9a4d 0abe 6fc9 e4bd
00000030: 9b3c 69bd 37c3 43bd d755 103c 8f34 323d
00000040: 5638 dfbe 76ae 72be 5ec0 03be f106 053d
00000050: bc2d 63bb ff62 20be 539b 03bd 6ffb febd
00000060: 682c 823d db01 58be fba6 56bd a5cf 2bbe
00000070: e92e cdbd 6a92 60bc 8f06 f6bc 943f d8bd
00000080: e9f0 b4bc a0d2 243e 74f4 8fbd 8133 4d3e
00000090: de69 88be 9173 2dbe 4d81 fdbd f775 8ebd
000000a0: 1a6e 71bc e799 4a3c 661a fe3c 11de 253d
000000b0: e544 57bd 21cc f13c ed21 80be 6767 003d
000000c0: 6954 553c 7c06 373d 18b1 2e3e b045 5e3e
000000d0: 678d 69bd 0d50 c5bb aeaf ee3c 7bf9 943c
000000e0: 1cd2 60bd 55bd 4b37 92b0 b8bd 3d82 283c
000000f0: 8c29 9d3c e7a3 06be b063 f3bc 5e48 c5bd
00000100: f952 e1bd 4296 873c f0c3 eebc b63d 8f3c
00000110: 9ef6 26be 74ab 0e3c d1ad ad3d 65da c8bb
00000120: 160e 4a3d 53bf 053d 5838 88be a724 90bd
00000130: fb91 233c 7272 b1bd 5c91 0fbe 8433 5cbd
00000140: ece5 0dbc c52c 2d3d 3f0b f6bd 2dd9 933c
00000150: 5b11 3dbe 576e 9a3c 23cf fd3c 7a70 9fbe
00000160: a7b9 12be 8acf 84bd 4f6f 063d 7d2d a43d
00000170: a8e4 cb3a b3b8 f9bd 9643 9a3c 3609 3bbe
00000180: 72fa fa3d bc9e 2d3a 6bd9 b63d 18ad 2e3e
00000190: 1228 5c3d 6b54 1abd 29c5 5ebc a76e 11bd
000001a0: b880 04bd 438f 9cbb 31d5 d3bc bc3a e8be
000001b0: c788 5fbd 4227 6dbc 63bc 833d 5672 11be
000001c0: 0b79 c2bd 9f44 633d 3907 d7bc e2b1 84bd
000001d0: fb80 8b3c 7faf 30be f7a8 903c 1f17 2fbd
000001e0: 5757 d1bd cb69 46be 34ac 03be 66b6 84bc
000001f0: 02f5 b2be cb2b 1abc b621 e13d 8fc0 cd3c
00000200: c502 933d 48c7 a2bd 2806 203e fdab 5d3d
00000210: 1da8 eebe 9ca3 5dbe 28e6 a53b 9e14 95bd
00000220: 1f3d 0bbd 1a3d 513e c8ee af3d b9bd a7be
00000230: 19f9 643e e573 b43d b84a 41be 3801 3a3e
00000240: 058b 143e a1a6 943d 4c4d c0bc 4a15 53be
00000250: 2c5c 96be 41d9 183e 536b 55be 73ab e1bd
00000260: 6780 92bb 189b c73e e5e2 fabd 722a 41be
00000270: 0349 5d3e c534 33be cfb6 edbd c27c 87be
00000280: c0e0 303e a8df ea3d 4f70 84bd 40b9 70be
00000290: 3bde 99bd e5fc 48bd 735e 713e 3937 ff3d
000002a0: f498 31be c5c8 9c3d acfb 4fbe 324c e5bc
000002b0: 7d79 14be c520 3ebe 88af ad3d e08f cfbc
000002c0: d0c6 04be 891c a83c e501 203e 57c6 4f3d
000002d0: b81a a03e 2895 0bbe 508d f5bd 9880 043d
000002e0: baaf 57be f69f 18be a4ea 55be 015e db3d
000002f0: addc dd3c ab13 e5bc caa1 afbe 5e14 d43d
00000300: f07d 113e 189f 513e 3a23 11be b65f 7ebe
00000310: 9c28 b83d 09c7 893c c16b db3d d8e5 92be
00000320: 2357 443e 6619 cdbd 57d5 52bc b1e0 943d
00000330: 419c 27be ab10 023e 2e73 183e c02f 393e
00000340: 8f71 3cbe 4590 39be 6985 5bbc 6b54 fdbc
00000350: c7aa b93a 4c38 acba 92b2 c03e 8cee 3d3e
00000360: 2c0c 97bd a794 cebd 3364 fb3c 63aa 063e
00000370: 2c1c b739 6ef0 3a3e 6647 ae3e b544 5b3d
00000380: c822 993d 26fd d2bd 6637 593d 81b5 afbe
00000390: d1d3 063d 234d 253e b98e b23e fce9 063e
000003a0: b147 783e 86b3 05be 67fb 0b3e 0f92 afbc
000003b0: 7bfe 033e 4904 8d3e 7e18 73be c4d5 3b3d
000003c0: 7893 3e3e 50fc 05bc b540 51be 3acc 323e
000003d0: 0a31 70be 7d85 2b3d cb5d 92be 948b 0c3d
000003e0: cd1d 9d3d 1911 1d3d 31e9 bb3b ef96 39be
000003f0: 4583 23be 690d 9d3e 1a53 11bd a8c4 63be

fc3.bias f4 [2]
0.005080126 0.001502732
00000000: 3077 a63b 52f7 c43a
