checkpoint_actor_0.pth (torch_old, 159230 bytes, 6 tensors)

fc1.weight f4 [256, 24]
00000000: 6b59 7d3d 460b 523d 8f44 833d bd5c f4bd
00000010: a68a 07bc abab be3c 3d93 8c3d 4449 2dbd
00000020: db1e a33c e909 773d c98d 5b3c edbf 0bbe
00000030: 376e 233c e102 793d 4d88 9a3d 198d aabd
00000040: f863 08bd 2975 4cbd 25e0 42bd bbd0 1dbc
00000050: d62c 51bc 13b2 3d3e 2d0a 923c 8177 60bd
00000060: 04b4 9b3d f884 193e 0429 42bd 7e35 1f3d
00000070: 6f65 eebd cc32 d03d ce45 1fbd 12b8 5cbd
00000080: b37b 8d3d 8f0f a43d a96f 4fbc d79c d43d
00000090: 1cdb 1abe 919d b83d 7d17 76bd 0938 e93d
000000a0: 50be bd3d 5cf9 583d b7f2 00be 7d6b de3c
000000b0: 6f98 c0bd 78f7 023e 354e a5bd 11ec 36bc
000000c0: 4565 ebbc 2659 39bd d049 82bd b2e9 e5bd
000000d0: 1bc3 c4bd be17 073d c8e4 15be 2c35 2abe
000000e0: 0628 9e3d bc55 73bd 36dd 9e3c 1a72 0dbd
000000f0: 833c 803d 70d7 af3b 1502 1e3d caca 70bc
00000100: eeb6 a93d 6f82 e3bc 7b60 71bd 9314 423d
00000110: f2a3 713e 9438 4abc 929d 4dbc 95e4 fa3d
00000120: edbe b93d b4cc 313e 264e ec3c edad 73bd
00000130: b324 0cbb 8b4d 103e d0b7 573d 3618 88bd
00000140: aabf c13c 5b00 033e 4787 81bd 1d55 7f3c
00000150: ceaf b63d 9430 473e fd29 cbbc 200f b33d
00000160: 44ac e43d 1876 163e 3ee6 93bd d486 ae3d
00000170: fe2a c03d 50bb 763e 35c8 c63c f90e eb3d
00000180: c198 b5bc 4f31 b3bc 0d31 b63c b83d 263d
00000190: d6f3 98bd a34c fd3a 5803 abbd c8a2 01bd
000001a0: 1234 51bc eee8 0abc 58d0 713d 082d 27be
000001b0: acfe d93d 51bf 453d 96ed a53d 6481 c4bd
000001c0: 5861 a03d 8052 263d aa0f abbb 9644 afbd
000001d0: 525e d13d c251 6ebc b9e6 083d 97ef 8dbc
000001e0: 4db2 a1bd e3bf 213b 68ef eebd edd3 ddbc
000001f0: 5849 d3bc b24f 20be 6d82 1dbd a0fd 10bc
00000200: bf50 cdbd 36b9 693d 898c ccbc bf29 80bd
00000210: f4ab b13d beb6 f7bd 1c98 2e3d e4ee 15bd
00000220: f3fe bdbd fc14 12be 2e2e 353d eb23 27be
00000230: 837c 813e dfba 7d3c 48f0 563d 41f7 41be
00000240: e05e aabd b3b5 ce3d 44a9 c53b 3ee1 51bd
00000250: 5fda 52bd 1a94 e7bd 5220 093d 52de 1c3d
00000260: 6dc5 a03c ebd6 6a3d 9fcf de3c a565 5ebd
00000270: ed99 88bd b3f0 a0bc fb1d c33b 6da9 3cbd
00000280: adb5 4bbd 33dc 46bc 479e 523d b217 0f3d
00000290: 5fc3 85bc ada1 77bd 5335 4a3d a58d 863d
000002a0: 6dc6 373d 98a7 33be c4ec 93bd 9afb 5f3d
000002b0: 113c 483d d480 d43d d785 35bd 2859 113c
000002c0: d71c 5d3d 6dc5 08be b520 04bd bd1b 213d
000002d0: 6d23 f1bd 3835 b43d e962 9abc ebdb 3f3d
000002e0: f0f2 a63d b4e6 f3bd 7d06 d6bc b66f 1d3e
000002f0: 6cd5 44be 909c 8b3d 4387 4e3d 277b 093e
00000300: c5ca f7bc b237 253d 477c c23b 2fdb ce3d
00000310: 48fe 893e af1e be3b 6872 093c 6fe9 9a3d
00000320: 9785 7e3d 2d30 64bc f9d0 aa3d 4651 06be
00000330: d003 2e3e 454b 4c3c 5d37 d43d 41f6 d9bd
00000340: 614b f03d fc9d 65bd aaee b8bb d19d 26be
00000350: 34d9 10bd 1790 b93c 60a6 aabd a57a 6abe
00000360: 7daa 453e 1514 453c 0e50 9abc e473 223c
00000370: 72b4 8cbd 504c 9b3d fe47 ddbc 9053 e13c
00000380: 7f67 063e 9855 83bd b849 ab3d 4b8c 023d
00000390: ef09 29bd 064d 673d 8d27 1d3d 8264 1dbd
000003a0: e5e9 3e3e 3d3c b5bd c79c f6bd e87a 0c3e
000003b0: f507 7dbd 4e3f d8bc 8f33 c0bc 5376 e33d
000003c0: 8feb 3ebd d349 14be caac 39bc ecdd 113e
000003d0: 13d4 c23d 3692 a83d 4e00 5cbd 9ef9 4a3e
000003e0: ad89 a2bb c644 cebd 2a1f 00bc 6f80 643e
000003f0: cfcd 0c3e ab23 573d 8275 49bd 2b80 7a3e
0.061852854 0.051280282 0.06409561 -0.11931751 -0.008272802 0.023275217 0.06864021 -0.0423062
0.019912174 0.060312185 0.013400503 -0.13647433 0.009975008 0.06079376 0.075455286 -0.083276935
-0.033298463 -0.04991642 -0.047577042 -0.009632285 -0.012767037 0.18524961 0.017827118 -0.054801468
0.07602695 0.1499213 -0.047402397 0.038869374 -0.11640441 0.10165939 -0.03888493 -0.05388648
0.069083594 0.0801078 -0.012660899 0.10381477 -0.15122646 0.090144284 -0.060080994 0.11387641
0.09264815 0.052972183 -0.12592588 0.027150864 -0.094040744 0.12789714 -0.080715574 -0.011164681
-0.028734813 -0.045251034 -0.06361735 -0.112262145 -0.09607526 0.032981627 -0.14638054 -0.16621846
0.077224776 -0.059407935 0.019392591 -0.034532644 0.06261542 0.0053662583 0.038576204 -0.014696786
0.08286844 -0.027772157 -0.0589299 0.047382902 0.23597696 -0.012342591 -0.012549775 0.1225063
0.09069619 0.17363244 0.028845858 -0.05949204 -0.002138418 0.1409208 0.05266553 -0.06645243
0.023650963 0.12793104 -0.0632463 0.015584257 0.08920251 0.19452125 -0.024800295 0.08743119
0.111656696 0.14693487 -0.072216496 0.0852181 0.093832 0.24094892 0.024265388 0.11477465
-0.022167565 -0.021874098 0.022240186 0.040586203 -0.07468383 0.0019325208 -0.08350247 -0.03164938
-0.012768762 -0.008478386 0.059036583 -0.16325772 0.10644278 0.048278157 0.081019565 -0.09594992
0.07831067 0.040606022 -0.005220373 -0.085580036 0.10223068 -0.01454586 0.03342316 -0.01732616
-0.07895336 0.0024681024 -0.11666757 -0.027078593 -0.025791809 -0.15655401 -0.03845446 -0.008849531
-0.10025167 0.057061397 -0.024969356 -0.062579624 0.086753756 -0.12095402 0.04262553 -0.036604777
-0.09277143 -0.14265817 0.044233494 -0.16322295 0.25290307 0.015486448 0.052475244 -0.18941976
-0.08318877 0.1009325 0.006032141 -0.0512402 -0.051477786 -0.11307545 0.03347809 0.03829796
0.01962539 0.057333868 0.02719861 -0.054296155 -0.06669984 -0.019646024 0.0059545017 -0.046060015
-0.049733806 -0.0121374605 0.051420476 0.034934707 -0.016328512 -0.06045692 0.04936726 0.06569985
0.044866968 -0.175444 -0.07222894 0.054683305 0.04888541 0.103761345 -0.044317093 0.008871354
0.053982582 -0.13356562 -0.032257754 0.039333094 -0.11774335 0.08799213 -0.018845992 0.04684059
0.081518054 -0.119092375 -0.02612614 0.15374646 -0.19222039 0.06816971 0.050421964 0.13425885
-0.030248055 0.04033632 0.005935225 0.101004 0.26951814 0.0058019976 0.008389093 0.07564055
0.06213912 -0.013927502 0.083406396 -0.13116941 0.16993642 0.0124691175 0.10362122 -0.10642672
0.117331274 -0.05605887 -0.0056436853 -0.1627114 -0.03536339 0.022651715 -0.08332515 -0.22898348
0.19303317 0.012028714 -0.018837001 0.009915326 -0.06870355 0.07582915 -0.027011868 0.027505666
0.13125418 -0.0641281 0.0836367 0.031872075 -0.04126924 0.05646994 0.038367797 -0.03842593
0.18643911 -0.0884938 -0.12041622 0.1371876 -0.061775167 -0.026397374 -0.023462085 0.11106553
-0.046611365 -0.14481287 -0.0113327 0.14244813 0.09513106 0.082310125 -0.053711228 0.19821784
-0.00496026 -0.10071711 -0.00781993 0.22314619 0.13750385 0.05252425 -0.04918433 0.24462955

fc1.bias f4 [256]
00000000: 2127 c03b a0fc 7e3d 06a9 d63c efc2 e93c
00000010: d1d7 c8bd e4b5 07be 9906 3cbe f5d8 7ebd
00000020: 871c 5abe 37b7 54be 0a47 f73d 73ec d6bb
00000030: 6ca1 0f3e c8a4 fabd a32b bc3d 5ede 693e
00000040: 8992 acbc 7acd a73b 82e2 13be 65f0 56be
00000050: db19 3c3e 2667 00be a8ca 2f3d 90f3 62bd
00000060: 7809 0a3d 49de 84be 6216 19bc 96c7 bcbc
00000070: 511a edbd ee1f 87bd 60b8 35bb 0db6 91bd
00000080: 4bb8 49bd 46a4 55bd db3f 3ebe 89d3 65bd
00000090: ee8e 54be 8ad2 6a3d e579 2abe d694 933d
000000a0: 3a99 03be 6d32 5dbe 3c98 75bd e101 10be
000000b0: 293b f2bd e33e ecbd 873a a8bc 7b42 32be
000000c0: 2ad3 263e 0661 5f3d ec69 5ebd a693 903e
000000d0: 255d 38be 27f3 57be a7a0 123e 376b aebd
000000e0: 870d 973e 4ddf 093b 3148 e3bd 1ce5 803e
000000f0: b6c5 f0bd 1799 bf3d 5761 00bd f48a 15be
00000100: edfd f13d d26f e0bd b284 4ebe 4280 d23c
00000110: 3ac9 36be bf6d 87bd 36d8 0dbd 48c5 d1bd
00000120: b4ef 60be 0478 27be 041a 14bc b9a5 673e
00000130: 6993 7c3d be74 e33d 2b47 6b3c 8f91 f83d
00000140: d172 c7bc 8cff b5bd a24f 40be 05d7 86be
00000150: 614c 193e 677a 2bbe 0616 1bbd c752 063e
00000160: 98b1 a2bd 5999 b63d 8a61 913b 1923 b8bd
00000170: 3544 d9bd ca71 133e 20ca 34be 6dab efbd
00000180: 0fb3 f03d aca4 fdbd 3e56 3a3e 8047 2c3e
00000190: 1b2b 9e3d 6653 36bd 2e6a 1c3d b6c8 ac3c
000001a0: 257d 4dbd 473c ae3d 786a 2b3e 1398 8a3d
000001b0: 5311 d23d 45a4 0b3d b213 e1bc 8e8f 22be
000001c0: 910c 01be f7e0 17be 17ee 1fbd 62c1 453d
000001d0: a68e 213e e30a 32be 1dfa 11be 8a3d 203e
000001e0: 7c66 d9bd eaa0 f0bc 2833 493d ac17 1e3e
000001f0: 5bb5 943d babc fb3c 9926 bebc 92c3 a93d
00000200: d9ef 4c3d 90e2 d6bd 2f82 efbd 9d6f bf3d
00000210: ef12 36be 9462 2d3e c906 0d3e cfa0 093e
00000220: 0e01 e13d f5af 35bd 1016 bb3d 9f76 963d
00000230: 16dc 903c 1bcd debd 5f68 263e 1fda b13d
00000240: cbdf 153b 91c7 bebd 2d1b 06bd 5311 9cbd
00000250: 78fd 41bc 5e1a 313e d791 7f3d 00ba 3f3e
00000260: aeb4 2c3e 7f90 1abe ccf8 773e 8aaa 623d
00000270: 1939 043e e204 b63b 7b20 81bd 8d7a cc3d
00000280: 650e 2dbe 5565 90bd d4f9 cdbc 1989 cd3d
00000290: a6c7 13bd d6e7 ab3d 6b2e 0e3d 59c6 333e
000002a0: 0e87 d53d 7251 1e3e 285c 103d f7b9 d3bd
000002b0: b37b 1abe e34d 1bbe d335 10be 7ff2 bebd
000002c0: eb3a bbbd 4c65 203e f633 cebd 041e 523d
000002d0: fa6a 0dbe 1d0e f53d 4abe 5e3e 01c7 ee3d
000002e0: 35a7 da3d f090 d3bd ad51 01be e084 7bbd
000002f0: e8b9 483b 37e5 7a3e 43f5 a03d ca53 353d
00000300: f947 82bc 9b72 92bd 2be8 6d3e d23f f2bd
00000310: 28cb dbbd 05d1 ff3d be3f f43d f98e 093e
00000320: 6c6e ac3d 2436 8c3d dabb cc3d 7d56 d9bd
00000330: 59f1 353e 246f 723e c757 9ebb d5e8 f23d
00000340: 2882 48bd b6e0 5bbe e885 8139 b96f 15be
00000350: 22fc 3d3e 2a46 c73d b4de bebc 79d4 0fbe
00000360: d1a0 2b3e a1ee 1c3e 52a0 b23b e8b7 113d
00000370: 78c2 d6bd 3104 063e 7dbb 973e 3317 47bd
00000380: 68d8 e53c 48ab 80be 1c84 673d e236 abbc
00000390: b838 1abd 054e 61be 4083 583e 2563 033e
000003a0: 5ffd 88bd af40 79bc c16f 593d d575 ff3d
000003b0: 8699 90bd a4b8 2d3d f971 0abd 4bc0 2e3e
000003c0: 6ef1 debd afe7 0bbe b427 443d 2e22 e5bd
000003d0: 0ab8 a7bd 1615 0f3e b6a5 0cbd bc8a 43be
000003e0: 2f8c 473d c12a 4cbe 61ba 59bd 2a02 51be
000003f0: cc3e 003e 6ff0 5b3e f845 73be 4c35 203e
0.0058640395 0.06225264 0.026203644 0.028535334 -0.09806789 -0.1325298 -0.18361892 -0.062218625
-0.21299945 -0.20773016 0.120740965 -0.0065589487 0.14026421 -0.12238461 0.091880105 0.22838733
-0.021065967 0.0051209303 -0.14441875 -0.2099014 0.18369238 -0.12539348 0.042917877 -0.05540806
0.033700436 -0.2595084 -0.009343715 -0.023044389 -0.11577285 -0.06597887 -0.0027728304 -0.071148016
-0.04924802 -0.052158616 -0.18579046 -0.05610994 -0.20757648 0.057329692 -0.16648062 0.072061226
-0.1285142 -0.21601267 -0.059959635 -0.14063217 -0.1182769 -0.11535432 -0.02053572 -0.17408173
0.1629149 0.054535888 -0.054300234 0.28237647 -0.18004282 -0.21088849 0.14319097 -0.08516543
0.29502508 0.0021037639 -0.11097754 0.25174797 -0.1175646 0.093553714 -0.03134283 -0.14603788
0.118160106 -0.10958828 -0.20167807 0.025695924 -0.178502 -0.06612729 -0.034630023 -0.102427065
-0.2196644 -0.16354376 -0.009039406 0.22621812 0.06166402 0.11106251 0.0143602295 0.12137138
-0.02434674 -0.08886632 -0.18780378 -0.26335922 0.14970542 -0.16745912 -0.0378628 0.13117515
-0.079440296 0.089159675 0.0044366764 -0.08991069 -0.106087126 0.14398876 -0.1765523 -0.11702619
0.11752903 -0.12384924 0.18196961 0.1682415 0.077230655 -0.04451313 0.0381872 0.0210918
-0.050168175 0.08507591 0.16739833 0.06767287 0.102572106 0.034092207 -0.027475212 -0.15875074
-0.1260245 -0.14831911 -0.03904542 0.048280127 0.15777072 -0.17386965 -0.14255567 0.15648475
-0.106152505 -0.029373605 0.049121052 0.15438718 0.07261153 0.03072964 -0.023211764 0.08289255
0.050033424 -0.10492432 -0.116947524 0.093474604 -0.1778066 0.16932136 0.1377212 0.1344025
0.10986529 -0.04435726 0.091350675 0.07346844 0.01768307 -0.108789645 0.16250752 0.086841814
0.0022868987 -0.09315408 -0.03274076 -0.07620492 -0.011840217 0.17295215 0.062394943 0.18723297
0.16865799 -0.15094183 0.24216002 0.05533842 0.12912406 0.0055547813 -0.06305023 0.09984312
-0.16900022 -0.070505776 -0.025143541 0.10035915 -0.03607907 0.083938286 0.034712236 0.17556132
0.1042615 0.15460756 0.035244137 -0.10338204 -0.1508625 -0.1516643 -0.14083032 -0.09323596
-0.09142097 0.15663642 -0.100685045 0.051298156 -0.1381034 0.119655825 0.21752277 0.11659051
0.106764235 -0.10330379 -0.12628813 -0.061406016 0.0030628387 0.24501501 0.0785928 0.04426936
-0.01590346 -0.071507655 0.23233096 -0.11828579 -0.10732108 0.12491039 0.1192622 0.13433446
0.08419499 0.06846264 0.09996767 -0.106121995 0.17767848 0.2367521 -0.004832241 0.118608154
-0.04895225 -0.21472439 0.00024704565 -0.145934 0.18553212 0.097301796 -0.023299553 -0.14045896
0.16760565 0.15325405 0.0054512406 0.035575777 -0.10486311 0.13087536 0.2963523 -0.04860611
0.028057292 -0.25130677 0.056522474 -0.020900194 -0.037651747 -0.22002418 0.21143818 0.1283079
-0.06688952 -0.015213176 0.053085092 0.124736466 -0.07060532 0.042412415 -0.0338001 0.17065541
-0.10885893 -0.13662599 0.047889426 -0.1118816 -0.081893995 0.13972887 -0.03433772 -0.19095892
0.048717674 -0.19938184 -0.05315626 -0.20410982 0.12523955 0.21478437 -0.2375716 0.15645331

fc2.weight f4 [128, 256]
00000000: 23d7 aebc 5ec6 063b 9bf1 c03d 9195 513c
00000010: 8abc 8c3d 7084 0e38 8c9a 063d 3094 fcbc
00000020: a116 2a3d 126a 0f3e ba2a 88bd 678f 87bd
00000030: 5604 ff3c 2ad5 c8bd 0c64 483d cb0a ca3d
00000040: d8d1 923d 6ad4 b9bd b9a0 b73d 11dc 97bc
00000050: 9603 7fbe 789a 273b c00a 8b3c 4db2 24bd
00000060: 9416 e13b 13a0 a8bd eaae d83c 0760 25bd
00000070: b0d9 853d bf88 1fbd aed8 c63d f552 e2bc
00000080: f646 d43d 90e3 e03d 2417 0cbe 9b61 6ebb
00000090: aaea 99bd c27b 4abd 56c9 733d f569 413d
000000a0: fc93 a73c 313d 653d 757e 3ebc b0ec c0bd
000000b0: d3d8 2e3e d711 003e 83b4 cabc 0543 11be
000000c0: 64cd 903d fb86 ed39 aaaa 01be a09b 8fbd
000000d0: b892 cf3d e354 53bd 3445 e5bc 821f b73d
000000e0: c15d 3dbc 6819 0c3d 89ff 89be 6439 4cbd
000000f0: b1c0 e73d 34b4 2c3e daae 88bd 330d bbbc
00000100: 1afe 16be 0f07 0e3e fed2 503d dc8f 043d
00000110: e60e e0bd b991 5d3d 2531 c8ba e6b7 edbd
00000120: f6bc 97bd 4ae5 ad3d 3a03 eebd 1b31 11bb
00000130: 2f09 40bd 0db1 9bbd 47e9 2e3d 7196 21be
00000140: 6210 dfbd 3f0d 88bc c4c3 2dbe 1b29 323e
00000150: 42bb 673d 34b8 75bd 8034 29be dab2 7cbc
00000160: 7c51 bdbd 4547 173d a797 7f3d dc00 adbc
00000170: 23ca debc 4d7f 89bd 9b08 dcbd 58c6 083d
00000180: 30d4 933d 94ec 82be ca85 633d 7d60 aebd
00000190: a777 793d 353c acbc a101 05be c84d 063e
000001a0: f7f3 203e c6b9 d8bd ae03 023e d881 1e3e
000001b0: 5222 15be 4217 e63d c825 8abe bdde 18be
000001c0: 4c62 a6bb fe4b f53b a261 22bd 25a7 bbbb
000001d0: d8bf 933e aba6 dd3d b4e6 3cbc e586 e93c
000001e0: 7dea 9abd fb9a 9bbd 5840 35be df50 bc3d
000001f0: f6a1 be3c 4bc6 bd3d b479 e03c df92 90bd
00000200: a85b 1b3d 0544 043e 532b 103e 9e30 b33d
00000210: 91c3 303d 65de 933d 6e82 ee3d b4d9 babd
00000220: fd49 c23d 787b f53d ad8f e3bd e4b2 173d
00000230: 31d3 ee3c acba 863d 5bf4 6f3d 8057 313d
00000240: 04d7 3f3d b86e 923d 3d11 23bd e3df a63d
00000250: 4b34 6cbc d075 543d 9ec5 f13c 51a3 7dbd
00000260: 7aa6 3cbe 8709 47bd 1337 d83d f19f 5b3b
00000270: 48ea 233d d3c6 9c3d 2f4f 7d3d 0089 c13d
00000280: b01d 133c 06a3 0abd 7e91 253d 79ee e0bd
00000290: 6797 8f3d c5a8 47be 8ea9 41bd 95ed 663d
000002a0: 68a7 063e 5a25 a3bc 846e a5bd 8ce1 c4bd
000002b0: aaae 0abe 83ef fdbb 4513 43be 54cc 40bc
000002c0: d555 373e 5853 90bd 1c4a 9e3d 7be3 5c3d
000002d0: b400 683e 000d c0bc 29d0 303c c204 e4bc
000002e0: 18c3 2c3e 8aeb 413d c6c4 e83d 590f d7bc
000002f0: e4c4 8fbd 0057 b93c 5e8f 9dbd 07c9 c8bd
00000300: 0e5f 77bd 94a4 143d 9718 05be faf7 893d
00000310: 6a9e 46be fb16 15be c8aa db3d 1a25 18bd
00000320: 989e 2d3d ba18 8cbe af1a 50bd d35d 863d
00000330: 0213 a53d 6ae4 69bd f2ab adbd 6480 08bc
00000340: c13c 49bd 68d0 9e3d 88e2 bebd 3aa4 d73d
00000350: 7c4c a6bc 5f41 02be e878 243d ab35 debb
00000360: 76fa 8abd dcd5 a03d acc6 67bd 85b8 86bd
00000370: df19 033e ac03 e13d 87c2 ad3d 94d4 053e
00000380: 00a0 54bd 2c28 5fbe a34d e0bc b397 e9bd
00000390: 19ea 5c3d 6370 3ebd 6617 5b3d ad38 043e
000003a0: 79b8 f1bc 9581 55bd ba2b 8bbd b5a9 d6bd
000003b0: 11de 99bd 8c8f be3d b8c6 ae3d b1ee e9bb
000003c0: 3da9 ab3d bf50 3cbe 5500 a33d 79db cabd
000003d0: 1b57 35bd f124 a03d 879b 9abd e548 e3bd
000003e0: d3ce 0dbd 588e eabc bd0d fbbc b2db 7f3c
000003f0: a3ef b13d a52b 883a a5a2 1b3d c1f9 79bd
-0.02134282 0.0020565013 0.094210826 0.012792007 0.068718985 3.397878e-05 0.03286223 -0.03083238
0.041525487 0.14005306 -0.066487744 -0.06619149 0.031129997 -0.09806283 0.048923537 0.0986534
0.07168931 -0.09073718 0.08966202 -0.018537553 -0.24903712 0.0025574248 0.0169729 -0.040209103
0.0068691466 -0.08233657 0.026450593 -0.040374782 0.06535661 -0.03894877 0.09709297 -0.027627448
0.10365097 0.10980904 -0.13680702 -0.0036374095 -0.07515462 -0.04943443 0.05951818 0.04722019
0.020456307 0.05596656 -0.011626829 -0.094201446 0.170749 0.12506805 -0.024744278 -0.14185722
0.07070425 0.0004530473 -0.1266276 -0.07012105 0.10135406 -0.051594626 -0.0279871 0.089415565
-0.011557997 0.034203917 -0.2695277 -0.04985942 0.1131605 0.16865617 -0.06673975 -0.022833442
-0.1474537 0.1386988 0.050982468 0.032363757 -0.10940342 0.05409405 -0.0015273435 -0.116073415
-0.07409088 0.08490999 -0.11621709 -0.0022154513 -0.04688376 -0.07602129 0.04270294 -0.15780045
-0.10891797 -0.016607879 -0.1696921 0.17398493 0.056575067 -0.059990123 -0.16523933 -0.015423501
-0.092440575 0.036933202 0.062400486 -0.021118574 -0.027195996 -0.06713734 -0.10743829 0.03339228
0.07218206 -0.2557112 0.055547513 -0.085144974 0.060905125 -0.021024803 -0.12988903 0.13115609
0.15718065 -0.105823085 0.12696716 0.15479219 -0.14563873 0.11234905 -0.2698195 -0.14928718
-0.005077636 0.0074858656 -0.03964389 -0.0057267123 0.28857303 0.10822805 -0.011529613 0.028506706
-0.07564256 -0.075979196 -0.17700326 0.091951124 0.023270588 0.09266337 0.027401783 -0.070592634
0.037929207 0.12916572 0.14079027 0.08749507 0.043155257 0.07220153 0.11645971 -0.09123555
0.094867684 0.119864404 -0.11111388 0.037035838 0.029153438 0.065785736 0.058582645 0.043296337
0.046835914 0.07150024 -0.03981136 0.08148172 -0.0144167645 0.051870167 0.029513177 -0.06192333
-0.18422881 -0.04859307 0.105573796 0.003351208 0.04001835 0.0765511 0.061843093 0.09449959
0.008979246 -0.033846878 0.040421955 -0.10982985 0.070112996 -0.19497974 -0.04728084 0.05637892
0.13149798 -0.019915272 -0.0807772 -0.09613332 -0.13543192 -0.0077494993 -0.1905032 -0.011767466
0.17903836 -0.070471466 0.07728979 0.05392788 0.22656518 -0.023443699 0.010791817 -0.0278343
0.16871297 0.04734377 0.113656566 -0.026252436 -0.07019976 0.022624493 -0.07693361 -0.09803968
-0.060393386 0.036289766 -0.12997662 0.06736751 -0.19396368 -0.14559548 0.10725933 -0.037144758
0.042387575 -0.27362615 -0.050806697 0.06560864 0.08060266 -0.0571026 -0.084800616 -0.008331392
-0.049130205 0.07754594 -0.09320551 0.105293706 -0.020300142 -0.1272025 0.040154368 -0.0067813
-0.06786053 0.078532904 -0.056585953 -0.06578163 0.12802838 0.109870285 0.08484369 0.13069373
-0.0519104 -0.21792668 -0.02738077 -0.114058875 0.05393419 -0.0464939 0.05348911 0.12912245
-0.029506909 -0.052125532 -0.067954496 -0.10481588 -0.07513059 0.09304723 0.08533996 -0.00713905
0.08381889 -0.18390177 0.07959048 -0.09905142 -0.044272523 0.07819546 -0.07549196 -0.11097888
-0.03462107 -0.028632328 -0.0306462 0.015616344 0.08688285 0.0010388984 0.037996907 -0.0610292

fc2.bias f4 [128]
00000000: c9e0 953d d351 f13c 9fb0 06bd 956b 473d
00000010: 5127 3c3c d28d 943d 3ae1 973d 7469 36bd
00000020: e92b e93c 510f 693d b136 4c3d bfe9 8a3d
00000030: b41d 3039 26f7 1c3d eee0 2eb8 44e7 313c
00000040: 125d fd3a fa3a 5f3d 9ebe 2bbc 7d1f a9bc
00000050: 2203 4abd ce94 cabc a309 423c 99b1 6e3d
00000060: c1c5 b63d be32 e63c 81dd 3ebd 1138 af3d
00000070: 4d92 423c 5d7c ecbc 4bd2 553d d02d 723d
00000080: 6bd3 2dbc 0102 65bd 11ac c9bd c207 30bc
00000090: 6e96 723d 28ab 253d 603f feba ba6e 19bd
000000a0: 6638 8a3b 74f6 883d 6ea5 f0ba 9f15 963d
000000b0: 4957 843d 81bf c63c 0664 29bc 6a0c 5a3d
000000c0: 3e79 d3ba 3a11 0bbd 67b4 10bd 7877 1fbd
000000d0: aaaa 7139 b1fb 823d cda1 db3c 2719 9b3d
000000e0: 1f02 9cbc fffa c83d d4d6 02bb 40ab ae3d
000000f0: b299 ce3c b3d2 02bd 0e79 89bc 5465 3b3d
00000100: ffc8 da3c 1b29 b53d f170 56bc 0fb8 96bd
00000110: 6a9f a4bb 663e 0f3d ad38 173d a9bb 52bd
00000120: e358 cd3c 2166 d0ba 58ac ac3d d629 de3b
00000130: 30cc 9bbc 0a98 ec3d 57c3 c13c a6c3 0bbd
00000140: 8786 513d f755 433c 0067 363d b41c 12bd
00000150: f7a9 a23c b57f 123d 9585 b1bc 165b 80bd
00000160: cd14 c53d c06f b5bd f757 ae3d ba8a 483d
00000170: 3713 1f3d b917 4bbc 8afd ab3c 1d22 f1bb
00000180: a728 313d e74f bbbb 4d8c c63c e60a e33c
00000190: b7cc 9e3c f89f 5a3d 4e40 debd 1d8e 903c
000001a0: a366 a4bd 8fbc a2bc 228c a1bc 7d55 553d
000001b0: c483 7c3c 54b9 b63d c601 6abd bac3 8339
000001c0: a8d5 30bd 7fb7 db3d d61b 193d 910a 8a3d
000001d0: a907 923d 6754 22ba 85a0 933d 1ea1 a3bc
000001e0: c529 163d 2106 973d 6acd 9c3d 7317 f8bc
000001f0: b929 093c 2487 3a3d 6e31 7b3d c2cd 1a3c
0.07318265 0.029457962 -0.032883283 0.048686583 0.011483983 0.072536126 0.074160054 -0.04453416
0.02846332 0.056899372 0.049856845 0.06782865 0.00016795733 0.038321637 -4.1694315e-05 0.010858361
0.0019330105 0.054499604 -0.010482458 -0.020644898 -0.049319394 -0.024729159 0.011843118 0.05827484
0.08924437 0.028100368 -0.04659796 0.08555616 0.011875701 -0.028867895 0.052202504 0.05912572
-0.010609488 -0.055910114 -0.09847272 -0.010744037 0.059225492 0.04044643 -0.0019397549 -0.037459113
0.004218149 0.06687632 -0.0018359849 0.07328343 0.06461961 0.024261238 -0.010338789 0.053234495
-0.0016134155 -0.033951975 -0.035328295 -0.038932294 0.00023047128 0.063956626 0.026810551 0.07573157
-0.01904398 0.09813499 -0.0019964473 0.08528757 0.025219772 -0.03193922 -0.016781356 0.04575093
0.02670717 0.08845731 -0.013088451 -0.07359325 -0.0050238864 0.034971617 0.036919285 -0.051448498
0.025066799 -0.0015899577 0.084313095 0.0067798896 -0.019018263 0.11552437 0.023652716 -0.03412213
0.051153686 0.011922351 0.044531822 -0.035671905 0.019856436 0.035766322 -0.021670142 -0.06267373
0.09623108 -0.08859205 0.08512872 0.048960425 0.038836684 -0.012395793 0.02099492 -0.007358803
0.04325166 -0.005716312 0.024236823 0.027715158 0.019384725 0.053375214 -0.10852109 0.01764589
-0.08027389 -0.019865302 -0.01972014 0.05208348 0.015412275 0.08922067 -0.057130598 0.00025132095
-0.04317251 0.107283585 0.037380062 0.06740297 0.07130367 -0.00061923865 0.07208351 -0.019974288
0.03666093 0.07374216 0.07656367 -0.030284619 0.008371764 0.045539036 0.061326437 0.009448471

fc3.weight f4 [2, 128]
00000000: 410c 283e 99c2 093e da87 383e 4ff5 1bbd
00000010: df12 873e a7f6 aabd 4b54 42bd b51f 32bc
00000020: 2451 1b3d 63a2 b73d 9624 003e 0f0f 55bc
00000030: e290 79bc ca0e 9bbd 03d3 e0bc cb16 f13c
00000040: 7047 20be b0db cabe 626e 033e 5a28 4c3e
00000050: 0218 f83d d22a a43d e216 1e3d cc9c 9dbd
00000060: d29a c7bc 3726 62bc b2ff 003e eec7 2a3c
00000070: 7275 93be 836b 093e 385a 58bc 016d 54bd
00000080: eae0 2b3e de54 e43d 7bd0 a63f 7d9a a23c
00000090: ea4f 703d d3f7 163e f555 683e 9798 013d
000000a0: a518 8bbc 0d32 073b a7e7 cf3d 9df1 06bd
000000b0: 1855 19bc 445e 343e b325 a2bc b098 e03d
000000c0: 5198 84bc eb16 ea3d b9c9 853c 87f7 0a3c
000000d0: 91af d23b 6c1c 243e 5276 28bd 20d6 723d
000000e0: f4be 733c 872b dcbd 9df5 593d eb39 4f3d
000000f0: e76f fa3d a02f 8e3d 6a39 81bd 2db6 e73d
00000100: 21dd 16be bb17 10bd bbb3 c1bd 0487 19bd
00000110: 4f68 b6bd e3ee 6a3d 6ce1 c73d 8b3f 3ebc
00000120: e190 d13d ffa9 2bbc 5572 a9bd e046 8e3e
00000130: 0029 1abd 372b a7bd 3922 9ebd fcc3 00bd
00000140: 2b6e 633d ee35 cdbc 133c 9ebc 0bac be3d
00000150: feac df3d ca5a 8d3e bf03 653d 45a4 fd3d
00000160: 607b 3bbe ffe1 843c 2ca5 23bd 8c2a 1abd
00000170: 945b 74be c8e3 84bd d2be 043e b64f 1d3e
00000180: 4a76 32be 05c8 0f3e f27a af3d d25c 253d
00000190: c910 ae3c 9cda a53d 3bb3 233e 2c95 743e
000001a0: c8b4 433d 2e07 493e f463 203e d706 723d
000001b0: 9626 a33d b04c e63d 637a a63d 6016 06be
000001c0: 126c 8e3e fb1c 133e effd 2cbe 6fe9 a2bd
000001d0: 6f2c 02bd 6654 7dbd 6fd9 50bc f8ed 44bd
000001e0: 3f44 cb3c 2d9c a23d 9ccf 6abd a1fa 0c3d
000001f0: bf83 a63d b3a3 703d 8735 b7bb 27f6 42bd
00000200: 0e2a e13d cbba b03d 667a f63d 5cc8 94bd
00000210: 117e 423e 4a91 1bbe 4a28 ddbd b426 46bd
00000220: 26c6 f93d ea33 303e 6d06 a93e 7a5f d1bd
00000230: 0ba5 413e 8525 843a 4047 98bd faa0 ecbd
00000240: eaa4 b23d fe04 873d d551 353d 5e5c 5abe
00000250: c170 a43d 78fd 2d3e 8e93 f4bd 52a3 403e
00000260: 3dba 91bd f58d 82bd af8b 9a3c 3905 723e
00000270: eccf 223e d657 243d 9c46 a7bd fea9 1dbd
00000280: 5191 8b3e 300a 0b3e 755b 463e 0f45 2bbe
00000290: 9a7e 13be cd81 8b3d 268c 6f3e 41ac 743e
000002a0: 656e ae3e 8bec 033e 50c9 863e 3262 90bd
000002b0: d038 9cbd e4bd 903d 4be9 0bbe ca25 84bd
000002c0: a629 3f3e 1278 873d 6c0b 1f3e 03b7 e1bd
000002d0: 6930 703e ca93 e13d a45e 18be abac d1bc
000002e0: 5cf2 1bbe 3e20 01be fae7 463e 2d3c 973e
000002f0: ee46 8abd 87f1 25bd 274e 5e3e 527d 393e
00000300: 1d2b d43c 0605 593e 5fae c3bd f153 c53e
00000310: 57e5 cf3d 82d9 3abd 4927 9b3d d1b3 7fbd
00000320: f380 9a3e fa69 b6bd fe63 c6bd a0b0 6e3d
00000330: b6bd 7fbd 4365 123d dbb2 ad3e c37b 903d
00000340: 8b98 503e 4d99 78bd 42ca c5bd 2e4b 9e3e
00000350: ef8b 7abd 23ec 7cbd 2bd4 da3e e74e 3dbe
00000360: 14d5 c03e f608 29be b571 e7bd b048 8d3e
00000370: 3717 9a3d 0d78 1e3e 2de4 913e 5584 083d
00000380: d157 df3d 2c47 6b3c 5343 72bd c158 a3bd
00000390: 40fa a03e cd4a da3e 9210 ab3e 7c82 e73c
000003a0: ef8c 613e 991a c0bc cc21 443e fba2 803d
000003b0: 291c 683e 4e9b 273e d1bd 0bbe 7bf1 4f3e
000003c0: 3c74 8e3d bd82 7ebe 0993 283e 66a6 5e3e
000003d0: f4e2 303e 9074 053e 7f3c bbbd 18aa eb3d
000003e0: 47a3 16be e3f8 af3d 6da5 95bd 2bf2 15be
000003f0: d947 8d3e d9f9 493e 76dd b2bd 5639 233d
0.16410924 0.1345314 0.18020573 -0.03807574 0.26381585 -0.083478265 -0.04744367 -0.010871817
0.03791918 0.0896652 0.12513956 -0.0130040785 -0.015232297 -0.0757118 -0.027444368 0.029429814
-0.15652251 -0.39620733 0.12835076 0.19937268 0.12113954 0.0801598 0.03859604 -0.07695922
-0.024365816 -0.013803056 0.1259754 0.0104236435 -0.2880054 0.13419919 -0.013205104 -0.051861767
0.16785017 0.11149 1.3032373 0.019849056 0.058669962 0.14742975 0.2268904 0.03163966
-0.016979525 0.0020629198 0.10151606 -0.032945264 -0.009358667 0.17614084 -0.019793367 0.10966623
-0.016185911 0.114301525 0.01633154 0.008481867 0.0064296206 0.16026467 -0.041128464 0.059286237
0.01487707 -0.1075049 0.05321275 0.050592344 0.12228375 0.069426775 -0.06309779 0.11314044
-0.14732791 -0.03517888 -0.09458109 -0.037482277 -0.08906614 0.057356726 0.09759793 -0.0116118295
0.102327116 -0.010477542 -0.0827376 0.27788448 -0.037636757 -0.081625395 -0.07721371 -0.031436905
0.055524986 -0.02505013 -0.019315755 0.09310158 0.109216675 0.2760833 0.055911776 0.123848476
-0.18308783 0.016221045 -0.039952442 -0.037638232 -0.2386306 -0.06488758 0.12963417 0.15362439
-0.17427936 0.14041145 0.08568372 0.040371723 0.021248238 0.08098337 0.1598634 0.2388503
0.04777983 0.19631645 0.15663129 0.059088554 0.07966344 0.11245096 0.08128812 -0.13094473
0.27816826 0.14366524 -0.16893743 -0.0795468 -0.031780656 -0.061848067 -0.012747153 -0.048078507
0.024812816 0.079399444 -0.057326898 0.034418706 0.08130597 0.058749866 -0.0055910978 -0.04759803
0.109943494 0.08629378 0.120350644 -0.07264778 0.18993403 -0.15192142 -0.107987 -0.048376754
0.12195997 0.17207304 0.33012715 -0.10223289 0.18910615 0.0010081982 -0.07435465 -0.11554141
0.08722861 0.06592749 0.044267494 -0.21324298 0.080293186 0.16991222 -0.11942206 0.18812302
-0.071156 -0.063747324 0.018865434 0.23634805 0.15899628 0.04012283 -0.081677645 -0.038492195
0.27259305 0.13578105 0.19370826 -0.16725563 -0.14403763 0.06811867 0.23393306 0.23893835
0.340686 0.12883203 0.26325464 -0.07049979 -0.076280236 0.07067469 -0.13663213 -0.0645252
0.18668231 0.066146985 0.15531701 -0.11021235 0.23455967 0.11014517 -0.14879853 -0.02559503
-0.15229172 -0.12609956 0.1942443 0.29538098 -0.0675181 -0.04051354 0.217095 0.18114212
0.025899464 0.21193323 -0.09554743 0.38540605 0.10151165 -0.045617588 0.075758524 -0.062427346
0.30176505 -0.08906932 -0.09687041 0.05827391 -0.06243678 0.035741102 0.33925518 0.07054856
0.2037069 -0.060693074 -0.09657718 0.30916733 -0.061168607 -0.061748635 0.42739996 -0.1848713
0.37662566 -0.16507325 -0.11300985 0.2759452 0.07523959 0.15475483 0.28494397 0.033329327
0.109054215 0.01436023 -0.059146237 -0.07975913 0.31440926 0.42635193 0.3341108 0.028260462
0.22026418 -0.023450183 0.19153517 0.06281086 0.22666992 0.16367838 -0.13646628 0.20306961
0.06955764 -0.2485456 0.1646234 0.21743163 0.17274076 0.13032746 -0.09142398 0.11507052
-0.14710723 0.08592393 -0.07306943 -0.14643161 0.27593878 0.19724216 -0.087336466 0.0398496

fc3.bias f4 [2]
00000000: 199e a53b 4a0f 773a
0.005054247 0.00094245805
