checkpoint_critic_1.pth (torch_old, 159740 bytes, 5 tensors)

fcs1.weight f4 [256, 24]
0	0xbc195459	-0.009358489
1	0x3d9b71b7	0.07590049
2	0x3d026005	0.031829853
3	0xbd14d897	-0.03633937
4	0xbdb0370b	-0.086042486
5	0xbe25b2f6	-0.1618155
6	0xbc829160	-0.01593846
7	0x3d000541	0.03125501
8	0xbd0b33bc	-0.033984885
9	0x3d5bd338	0.05366823
10	0xbd2bb15f	-0.0419172
11	0x3b4569bc	0.0030122837
12	0x3dd23ecf	0.10265886
13	0xbde11182	-0.109896675
14	0x3d6d407b	0.05792282
15	0x3c3863b0	0.011254236
16	0xbc51a289	-0.012795099
17	0xbcb79281	-0.022408726
18	0x3d4b8882	0.04969073
19	0x3c0d6616	0.008630296
20	0x3d27d509	0.04097465
21	0x3dc57ec9	0.09643323
22	0xbd3af690	-0.045645297
23	0x3d13c597	0.03607711
24	0x3d31a7cb	0.04337291
25	0xbd47aaa2	-0.048746713
26	0xbc17b200	-0.009258747
27	0xbc95f9cc	-0.018307589
28	0xbd009881	-0.03139544
29	0xbd6f167d	-0.058371056
30	0x3d1113c5	0.035419244
31	0xbd2200e5	-0.039551634
32	0x3b2d512c	0.0026446087
33	0xbdaf0277	-0.08545392
34	0x3c9b6299	0.018967913
35	0xbbd20c52	-0.00641016
36	0x3ba7b305	0.0051177763
37	0x3d50eea5	0.05100884
38	0xbc8be3ef	-0.01707646
39	0xbc0aaacb	-0.008463572
40	0x3d87e9d9	0.066364
41	0xbd63380a	-0.055473365
42	0xbcc918a8	-0.02454789
43	0xbd6902e7	-0.056887534
44	0x3e4f152b	0.20222919
45	0xbd8d0f95	-0.06887738
46	0x3c926178	0.017868742
47	0xbced5f3f	-0.028976081
48	0xbabdf7ae	-0.001449337
49	0x3d858534	0.06519547
50	0x3c077159	0.00826677
51	0xbd28b644	-0.041189447
52	0xbc90572a	-0.017619688
53	0xbde725a0	-0.11286473
54	0x3cf24231	0.029572578
55	0xbce38d54	-0.027777351
56	0xbcaf67a3	-0.021411723
57	0x3dba7669	0.09104616
58	0xbba2713e	-0.004957347
59	0xbd880f8e	-0.06643592
60	0x3d245d43	0.040128004
61	0xbdbb278b	-0.091384016
62	0x3c19d5a2	0.009389313
63	0x3c25aada	0.010111535
64	0x3c91b335	0.017785648
65	0x3cfb0bad	0.030645216
66	0x3d3dda7c	0.04635094
67	0x3c9e3fad	0.019317472
68	0x3cfefb7a	0.031125773
69	0xbd1859cd	-0.037195016
70	0xbc5369d1	-0.012903647
71	0x3cb25aa1	0.02177173
72	0x3d3a5c0d	0.045497943
73	0x3bb3a338	0.0054821037
74	0x3abff960	0.0014646463
75	0x3c29ef84	0.010372046
76	0xbdd9b97d	-0.10631082
77	0x3d9062e8	0.07050115
78	0x3c4d9252	0.0125470925
79	0x3cfa8f65	0.030585954
80	0x3b95a572	0.0045668418
81	0x3d9d1c1f	0.07671379
82	0xbc9f74af	-0.019464819
83	0x3c819bc3	0.015821343
84	0xbc679c79	-0.014136427
85	0xbc8bcb63	-0.017064756
86	0x3d364502	0.044499405
87	0xbd7d6139	-0.061860297
88	0xbd65402b	-0.0559694
89	0x3d43933a	0.047747828
90	0x3c2557c0	0.010091722
91	0xbb7c809e	-0.003852881
92	0x3dfd43f7	0.12366479
93	0xbd226c0c	-0.039653823
94	0x3ccdcd21	0.025122227
95	0xbc45123c	-0.012028273
96	0x3d397dd7	0.045286026
97	0xbd1fcf72	-0.039016195
98	0xbc34f89b	-0.0110456
99	0x3b1f40c1	0.002430007
100	0xbd55ba3c	-0.05217956
101	0xbdd26f19	-0.102750964
102	0x3d4b5d5a	0.049649574
103	0xbd2f7732	-0.042838283
104	0xbd22db83	-0.039760124
105	0x3ca52357	0.020158453
106	0xb88e8954	-6.796667e-05
107	0xbd63fc6e	-0.055660658
108	0x3d8b8410	0.06812298
109	0xbd8e06e8	-0.06934911
110	0xbcb34312	-0.021882568
111	0x3d292234	0.041292384
112	0x3d844a4f	0.06459486
113	0xbc9487ae	-0.018131103
114	0xbc138bd0	-0.009005502
115	0x3bdb6dc0	0.006696433
116	0x3dc39cc3	0.09551384
117	0xbdaede1f	-0.0853846
118	0x3d048843	0.03235651
119	0xbd1226ce	-0.03568154
120	0x3d7d4541	0.061833624
121	0xbd72fd7e	-0.05932378
122	0x3ca7abae	0.020467605
123	0xbbbd26d9	-0.0057724533
124	0x3d97770c	0.07395753
125	0x3db2fc90	0.08739579
126	0xbca6e296	-0.020371716
127	0xbd41123f	-0.04713654
128	0x3d8aa01b	0.06768819
129	0xbdb8557a	-0.09000678
130	0x3d3f4def	0.046705183
131	0x3d3f6adf	0.04673278
132	0x3c9ba472	0.018999312
133	0x3c468523	0.012116703
134	0x3cb3fbe1	0.021970691
135	0x3cbd9fc5	0.023147473
136	0x3d1b8585	0.03796913
137	0xbcfea130	-0.03108272
138	0xba2806c2	-0.00064096984
139	0x3bc1c830	0.005913757
140	0xbdeba5c0	-0.11506224
141	0x3d9dce25	0.077053346
142	0x3c7556de	0.014974324
143	0xbd89708d	-0.067109205
144	0x3cd72658	0.0262634
145	0x3dbfd802	0.09367372
146	0xbd343ca2	-0.044003136
147	0xba9ff2aa	-0.0012203057
148	0xbd878c3c	-0.066185445
149	0x3d0a3842	0.033745058
150	0xbb5d15c5	-0.00337349
151	0x3d562b87	0.052287605
152	0x3c0ad3c0	0.008473337
153	0x3d560673	0.052252244
154	0x3d5c0d8e	0.053723864
155	0x3d192dc9	0.03739718
156	0xbce80e0e	-0.028327014
157	0xbcafdf33	-0.021468734
158	0xbce3d5a7	-0.027811838
159	0xbc1a6a8b	-0.009424816
160	0x3d0cf138	0.03440973
161	0x3da07faf	0.07836854
162	0xbc8d23bd	-0.017228955
163	0xbc5b8d42	-0.013400378
164	0x3e0adaa3	0.13559966
165	0xbe3c35b3	-0.1837986
166	0xbca29a7f	-0.01984906
167	0x3ce4a2b4	0.027909614
168	0x3c3443d2	0.011002498
169	0x3c8f093b	0.017460456
170	0xbcb06dca	-0.021536727
171	0x3a8a5644	0.0010554274
172	0xbcb90e05	-0.022589693
173	0xbcea520d	-0.028603578
174	0x3c4a023a	0.012329632
175	0x3cc20888	0.023685709
176	0x3cb1c9af	0.021702616
177	0xbca53ab8	-0.0201696
178	0xbd5bdce2	-0.053677447
179	0xbca6efb9	-0.02037798
180	0xbd98411f	-0.07434296
181	0xbdd6e72a	-0.1049331
182	0x3c928c59	0.017889189
183	0x3d4a6973	0.04941697
184	0xbbec7b2e	-0.0072168326
185	0xbdc042d4	-0.093877465
186	0xbbf51b74	-0.0074800793
187	0x3d97e796	0.074172184
188	0xbe0973f7	-0.13423143
189	0xbd7d5106	-0.061844848
190	0x3c679b8a	0.0141362045
191	0x3d1e3276	0.038622342
192	0x3c0cd728	0.008596219
193	0x3d10404e	0.035217576
194	0xbcb49670	-0.02204439
195	0x3b21b0da	0.0024672062
196	0x3dae29e8	0.08504087
197	0x3d150072	0.036377378
198	0xba7322e6	-0.00092749146
199	0xbcb26a84	-0.021779306
200	0xbd6ea10c	-0.058259055
201	0x3d8cad5a	0.06869002
202	0x3d0afc27	0.033931877
203	0x3da69de7	0.08135586
204	0x3c39b1d5	0.011333902
205	0xbc20e6c2	-0.009820642
206	0xbd4bec93	-0.04978616
207	0x3b2b6b71	0.002615657
208	0xbb4a9394	-0.0030910717
209	0xbd3b7cff	-0.045773502
210	0xbc630531	-0.013856218
211	0x3cb124c4	0.021623977
212	0xbd950c76	-0.07277767
213	0x3bdbdc0b	0.006709581
214	0xbc43d511	-0.011952654
215	0xbb3b4301	-0.0028573873
216	0xbd12893d	-0.035775412
217	0xbcc3ecd1	-0.023916634
218	0xbcb8ad2d	-0.022543514
219	0x3cd7561a	0.026286174
220	0xbd7d61a9	-0.061860714
221	0xbdfff5d0	-0.12498057
222	0x3d3a0de2	0.045423396
223	0x3c960ac9	0.01831569
224	0x3d9f1b93	0.07768931
225	0xbd3300d2	-0.043701954
226	0x3d54b4e1	0.051930312
227	0xbd2486cb	-0.04016761
228	0xbd44f3c1	-0.048084024
229	0xbd795acb	-0.060877603
230	0xbc858ab5	-0.016301492
231	0xbd4f8103	-0.050660145
232	0xbb121862	-0.0022292365
233	0x3d24cb1f	0.040232774
234	0xbd299b6b	-0.041407984
235	0x3dbc6b92	0.09200205
236	0xbd623bdf	-0.05523288
237	0x3ceeebea	0.029165227
238	0x3d2126b3	0.039343547
239	0x3d654020	0.055969357
240	0xbd89d43b	-0.06729933
241	0x3d143434	0.036182597
242	0x3cf88174	0.030335166
243	0xbce247f2	-0.027622197
244	0xbd37b528	-0.0448505
245	0x3c182827	0.009286917
246	0x3c8cef0e	0.017203834
247	0x3cb0681a	0.021534014
248	0xbd1a16ee	-0.037619524
249	0xbc8cb668	-0.017176822
250	0x3d35283e	0.04422783
251	0x3ca931b5	0.020653585
252	0x3d2fb738	0.04289934
253	0xbe83e4b6	-0.2576043
254	0xbd24bb7e	-0.04021787
255	0x3d09e47b	0.03366516

fcs1.bias f4 [256]
0	0xbde70078	-0.11279386
1	0x3d94f56b	0.07273372
2	0x3d665ca7	0.056240704
3	0x3e08937f	0.13337515
4	0xbdd6c635	-0.10487024
5	0xbe47e2d8	-0.19520128
6	0xbe229757	-0.15878044
7	0xbd1326c4	-0.03592564
8	0xbe62db2b	-0.22153918
9	0xbe367376	-0.17817482
10	0x3ddd4145	0.10803465
11	0xbcbca710	-0.02302888
12	0x3e10329c	0.14081806
13	0xbe29ffdd	-0.1660151
14	0x3dcaac5c	0.09896156
15	0x3e1378a0	0.14401484
16	0x3c985a4e	0.018597748
17	0x3d5acea8	0.05341974
18	0xbe50943e	-0.2036905
19	0xbdc8c877	-0.09803861
20	0x3d862ff5	0.06552116
21	0xbe69f82b	-0.22848575
22	0xbd281f2a	-0.041045345
23	0xbe2e9a50	-0.17051053
24	0xbd9ea88b	-0.07746991
25	0xbe660835	-0.22464068
26	0x3d2eb703	0.042655002
27	0x3d0b40ec	0.03399746
28	0xbe422e8b	-0.18963067
29	0xbcf53367	-0.029931737
30	0xbd4e177d	-0.05031537
31	0xbde4a0ee	-0.111635074
32	0xbd2a9e63	-0.041654956
33	0x3beb8e08	0.0071885623
34	0xbdc1babe	-0.09459446
35	0x3d16068f	0.03662735
36	0xbe57905e	-0.21051165
37	0x3e404dd3	0.18779688
38	0xbe25851b	-0.16164057
39	0x3dedba68	0.1160782
40	0xbde52fed	-0.11190782
41	0xbe450d6d	-0.19243403
42	0x3bfff4e9	0.007811178
43	0xbe3fea67	-0.18741761
44	0xbd8928bb	-0.06697222
45	0xbdecd815	-0.11564652
46	0xbd941880	-0.072312355
47	0xbe315b5d	-0.17320009
48	0x3dc77c89	0.0974055
49	0x3d58016b	0.052735727
50	0xbdbfacd8	-0.09359139
51	0x3d94af6b	0.07260021
52	0xbe18fbe8	-0.14939845
53	0xbe27877f	-0.16360281
54	0x3d1f4360	0.038882613
55	0xbdab6a78	-0.08369917
56	0x3e286823	0.16445975
57	0xbd4e63c5	-0.050388116
58	0xbe5dddf2	-0.21666697
59	0x3e196084	0.14978224
60	0x3c7e4180	0.015518546
61	0x3d8808bf	0.06642293
62	0xbe0d2b1b	-0.13785975
63	0xbe1cf6a7	-0.15328465
64	0x3cdea7a9	0.027179556
65	0xbcbf7dea	-0.02337547
66	0xbe11c52c	-0.14235371
67	0x3db92e22	0.09042002
68	0xbe738eb0	-0.237849
69	0xbd978400	-0.07398224
70	0xbd0497a1	-0.032371167
71	0xbe72600c	-0.23669451
72	0xbe465d4d	-0.19371529
73	0xbdaf7a75	-0.08568279
74	0xbd1a7709	-0.037711177
75	0x3e525945	0.20541866
76	0x3d927132	0.071504965
77	0x3e4e4cee	0.20146534
78	0x3d8588d8	0.065202415
79	0xbc699e8b	-0.014258991
80	0xbda1b633	-0.0789608
81	0xbdbd5a00	-0.09245682
82	0xbe2909ff	-0.1650772
83	0xbe37577d	-0.17904468
84	0x3dfad267	0.12247162
85	0xbdf76d7d	-0.1208143
86	0xbd7db3c7	-0.061939027
87	0x3dd9db66	0.1063755
88	0xbd80588d	-0.0626689
89	0x3dfc2252	0.123112336
90	0xbc643566	-0.013928747
91	0x3ba4460e	0.005013234
92	0xbdec7775	-0.11546222
93	0x3e494f89	0.19659247
94	0xbe27c939	-0.16385354
95	0xbe3d191f	-0.18466614
96	0x3e439115	0.19098313
97	0xbe4cc217	-0.19995914
98	0x3e4a9846	0.1978465
99	0x3d682540	0.05667615
100	0x3da113e4	0.07865122
101	0xbd802ac2	-0.062581554
102	0x3d06120c	0.032732055
103	0x3da395e3	0.07987573
104	0xbe0ecd36	-0.1394547
105	0x3e390571	0.18068482
106	0x3e13063c	0.14357847
107	0xbca9d8f5	-0.020733336
108	0x3d693d66	0.05694332
109	0xbd969790	-0.07353127
110	0xbd6d36f3	-0.05791373
111	0xbe4263a5	-0.18983324
112	0xbdf96e3b	-0.12179228
113	0xbe1dc94f	-0.15408824
114	0xbce2eeb6	-0.027701717
115	0x3dbc2d00	0.091882706
116	0x3e37c83b	0.17947476
117	0xbe6965bc	-0.22792715
118	0xbe5c96f3	-0.21541958
119	0x3e03c1d2	0.12866905
120	0xbd9eb347	-0.07749038
121	0x3d2f3038	0.042770594
122	0x3dbf4734	0.09339753
123	0x3dfe4d70	0.12417114
124	0x3d9bf178	0.07614416
125	0x3bd446e1	0.006478176
126	0x3d1fd62d	0.039022613
127	0x3bd76360	0.0065731257
128	0x3d7f6376	0.062350713
129	0xbe430797	-0.19045864
130	0xbe5a174d	-0.21297951
131	0x3e06da3c	0.13169187
132	0xbebb9872	-0.36639744
133	0x3dc3bdc6	0.09557681
134	0x3e144a37	0.14481436
135	0x3e246744	0.16055018
136	0x3ce8351a	0.028345633
137	0x3ca9c0c3	0.020721799
138	0x3d1d24a3	0.038365018
139	0x3dcf79d7	0.10130661
140	0xbac94b65	-0.0015357552
141	0xbe62e4d0	-0.22157598
142	0x3e30588f	0.17221282
143	0xbc95d4c5	-0.018289933
144	0x3e1c11a4	0.15241104
145	0xbe52cfdc	-0.20587105
146	0xbdb8ff4d	-0.0903307
147	0xbdba2428	-0.090889275
148	0xbceafaca	-0.028684039
149	0x3e6e8e38	0.2329644
150	0x3cc5fd3f	0.024168609
151	0x3e356683	0.17714886
152	0x3ddaeb65	0.10689429
153	0xbe0cccdc	-0.13750023
154	0x3df30719	0.11866588
155	0xbdd0f62d	-0.10203204
156	0x3e1756f2	0.14779261
157	0x3b9d83a4	0.0048069526
158	0xbd603ddb	-0.05474649
159	0x3e3d07b3	0.18459968
160	0xbe15184b	-0.14560048
161	0xbd4c5816	-0.049888693
162	0xbc62c337	-0.013840488
163	0xbca7bdf0	-0.020476311
164	0xbd958b22	-0.07301928
165	0x3e17bb52	0.14817551
166	0xbd0f71c4	-0.035020605
167	0x3de60678	0.112317026
168	0x3dc152fc	0.09439656
169	0x3e17cbd2	0.14823845
170	0x3dee5aa6	0.116383836
171	0xbe2d23a2	-0.16908124
172	0xbe84f771	-0.25970033
173	0xbe64a7c3	-0.22329621
174	0xbe241b9a	-0.16026154
175	0xbe422d74	-0.18962651
176	0xbd996dd1	-0.07491649
177	0x3e243194	0.16034538
178	0xbe9d38fa	-0.30707532
179	0x3d973b3f	0.07384347
180	0xbe039e5c	-0.12853378
181	0x3e679018	0.22613561
182	0x3e028bb3	0.12748604
183	0x3d8aa356	0.06769435
184	0x3e5a594f	0.21323131
185	0xbddd7590	-0.10813439
186	0xbe8672eb	-0.2625955
187	0xbd4cffc5	-0.05004861
188	0xbb78df7a	-0.0037975
189	0x3df5b511	0.11997426
190	0x3d43f049	0.047836576
191	0x3d79f96e	0.06102889
192	0x3c760aef	0.015017255
193	0xbd98ea0c	-0.07466516
194	0x3df489e9	0.11940367
195	0xbe4f4f49	-0.20245089
196	0xbe5985a9	-0.21242394
197	0x3d9ff690	0.078107
198	0x3e4fc971	0.20291688
199	0x3c299b5d	0.010351983
200	0xbcd458fc	-0.025921337
201	0xbda8115e	-0.082064375
202	0xbcd726af	-0.026263563
203	0xbe0b139e	-0.13581702
204	0x3e4514b6	0.19246182
205	0x3e25dfd7	0.1619867
206	0xbd9b1844	-0.07572988
207	0x3e248ae4	0.16068608
208	0xbdcfbcb4	-0.10143414
209	0xbe4e030b	-0.20118348
210	0x3cfd6896	0.03093366
211	0xbd0070d8	-0.031357616
212	0x3e2e0327	0.1699339
213	0xbca412c9	-0.020028489
214	0xbd69a1dc	-0.057039127
215	0xbe4d3a6b	-0.20041816
216	0x3e234feb	0.15948455
217	0x3e193c78	0.14964473
218	0x3cbf9dbc	0.023390643
219	0xbce33a6c	-0.027737819
220	0xbdac8090	-0.08422959
221	0x3d2d32a5	0.042284627
222	0x3e86bfc9	0.26318195
223	0x3d60f7d6	0.054923855
224	0xbc099278	-0.008396737
225	0xbe4b2436	-0.19838032
226	0x3d92d2ef	0.07169139
227	0xbdf8a9e9	-0.12141783
228	0xbd22f74d	-0.039786626
229	0xbdecd821	-0.11564661
230	0x3e6f02a2	0.23340848
231	0x3d5d4b81	0.054027084
232	0xbd72f745	-0.059317846
233	0xbd82f187	-0.06393724
234	0x3d269998	0.040673822
235	0x3cd2aebe	0.02571809
236	0xbd95d9ac	-0.07316908
237	0x3d60a105	0.05484106
238	0xbc957976	-0.018246394
239	0x3db88b79	0.09010977
240	0xbdfdf1da	-0.12399645
241	0xbe281dfe	-0.16417691
242	0x3db8e03f	0.090271465
243	0xbc771c6e	-0.015082462
244	0xbe12c748	-0.14333832
245	0x3e418c6e	0.18901226
246	0xbcf2f5cf	-0.029658226
247	0xbe4027c6	-0.18765172
248	0xbd517958	-0.051141113
249	0xbdc554ce	-0.09635316
250	0xbd9ca23c	-0.07648131
251	0xbe242bf8	-0.16032398
252	0x3df9f12b	0.12204202
253	0x3e53e0ef	0.20691274
254	0xbe654e43	-0.22393136
255	0x3e397c30	0.1811378

fc2.weight f4 [128, 258]
0	0xbc2d4167	-0.010574675
1	0x3c4658cd	0.012106133
2	0x3d99bc84	0.075066596
3	0x3bd48bc0	0.006486386
4	0x3dba0453	0.09082856
5	0xbb9eef02	-0.0048502693
6	0x3e0cf288	0.13764393
7	0x3de480e1	0.11157394
8	0xbde99b6b	-0.11406597
9	0xbcdbc6b5	-0.02682815
10	0x3d8f3033	0.06991615
11	0xbdf28bae	-0.11843048
12	0xbcad2c24	-0.021139212
13	0xbd551439	-0.05202124
14	0x3b2e31db	0.002658001
15	0x3b8b662b	0.0042541227
16	0xbd37c7d3	-0.0448683
17	0xbe12d4e0	-0.14339018
18	0x3d6e0d23	0.058117997
19	0xbc9fa02a	-0.019485552
20	0xbd296de7	-0.041364577
21	0xbdb672a8	-0.08908588
22	0x3cdfdfec	0.027328454
23	0x3d3e7752	0.04650051
24	0xbd8e014a	-0.069338396
25	0xbdc009f6	-0.093769
26	0xbd60fdaa	-0.054929413
27	0xbcd7a0c6	-0.02632178
28	0xbd288882	-0.04114581
29	0xbc96cd93	-0.018408572
30	0x3b865b3e	0.0041002324
31	0x3c9b27c2	0.018939856
32	0x3d981225	0.07425336
33	0x3da93e82	0.082638755
34	0xbc11dd35	-0.0089028375
35	0x3d652f7a	0.05595348
36	0x3bdc0409	0.006714348
37	0x3a8f6394	0.0010939711
38	0xbdc5b0b4	-0.09652844
39	0xbd0a0cf7	-0.03370377
40	0x3d4c2966	0.049844168
41	0xbc392704	-0.011300806
42	0xbd5d7474	-0.054066136
43	0xbd867da7	-0.06566935
44	0xbdd989a6	-0.106219575
45	0xbddaab6b	-0.10677227
46	0xbd243cea	-0.040097155
47	0xbd264751	-0.040595356
48	0xbdd3fc5c	-0.10350868
49	0x3c8de64f	0.017321734
50	0x3d03e95b	0.032204967
51	0x3cc8362d	0.024439896
52	0x3d86df15	0.06585518
53	0x3da9f859	0.08299322
54	0xbd4a52e5	-0.04939546
55	0x3dba3dc5	0.09093813
56	0x3d4775fa	0.048696496
57	0x3ceaf41a	0.02868085
58	0xbd3d5342	-0.04622198
59	0x3ce3be6f	0.027800767
60	0xbd00ec38	-0.031475276
61	0x3d204674	0.03912969
62	0x3db3a375	0.08771411
63	0xbd62c3da	-0.05536256
64	0xbd024d58	-0.031812042
65	0xbd7774a4	-0.06041397
66	0xbdcd4290	-0.100224614
67	0xbc686165	-0.014183377
68	0x3bbfcf2f	0.0058535556
69	0xbcb9d02e	-0.022682276
70	0xbd5ccc01	-0.05390549
71	0x3cada445	0.021196494
72	0xbc930ac1	-0.017949464
73	0x3d1259ec	0.035730287
74	0xbd242132	-0.04007072
75	0xbe40a204	-0.18811804
76	0x3d076b13	0.0330611
77	0x3cd51da8	0.026015118
78	0x3d465f34	0.048430637
79	0xbded620f	-0.11590969
80	0x3de7121c	0.11282751
81	0x3d7e74e4	0.062123194
82	0x3d416cf8	0.04722306
83	0xbc5b6f8c	-0.013393294
84	0xbceceacc	-0.028920554
85	0x3db363d3	0.08759274
86	0x3c16a01f	0.009193449
87	0x3d4da3f8	0.0502052
88	0xbd139778	-0.036033124
89	0x3d5a5b1d	0.05330955
90	0x3ce45df2	0.027876828
91	0xbdae978f	-0.08525001
92	0xbd50ccee	-0.050976686
93	0x3b8ea3a7	0.004353005
94	0xbba9757e	-0.005171477
95	0x3b422cfb	0.0029628861
96	0x3de14f52	0.11001457
97	0xbc7db3d8	-0.015484773
98	0xbc56d48b	-0.013112198
99	0xbc26a6c6	-0.010171598
100	0x3bad4c73	0.0052886545
101	0xbd55d73d	-0.05220722
102	0xbe642dd1	-0.22283103
103	0x3d6335cf	0.055471238
104	0xbe1dfc24	-0.15428215
105	0xbcef1e18	-0.029189155
106	0xbd8725fb	-0.06599041
107	0xbe4c6bc1	-0.1996298
108	0xbbfdc983	-0.0077449693
109	0x3c740cff	0.014895677
110	0x3c97727b	0.018487206
111	0x3d0dc56a	0.034612097
112	0xbdb0df80	-0.08636379
113	0x3c520a27	0.012819803
114	0xbdc2845f	-0.09497904
115	0x3d517b68	0.05114308
116	0xbe017a4b	-0.12644307
117	0xbda9f5c4	-0.08298829
118	0x3d2af0b6	0.041733466
119	0x3dd897ac	0.10575804
120	0xbcb558a8	-0.022137001
121	0x3d849d72	0.06475343
122	0xbd429b7e	-0.04751157
123	0xbcd27ea2	-0.025695149
124	0xbd0ea933	-0.03482933
125	0xbe5eeb53	-0.21769457
126	0x3ba7d9e6	0.005122411
127	0x3d028856	0.0318683
128	0xbd3119af	-0.043237384
129	0xbda6f2ac	-0.08151755
130	0xbe0eacf2	-0.13933161
131	0xbc0cb744	-0.008588616
132	0x3de235d3	0.110454224
133	0xbcabfa71	-0.020993443
134	0x3e024833	0.12722854
135	0xbc11d046	-0.008899754
136	0x3d8b07f9	0.0678863
137	0x398c03ba	0.00026705657
138	0x3d235c80	0.039883137
139	0x3d7064f1	0.058690015
140	0xbd2fc454	-0.042911842
141	0x3bfc5b50	0.007701315
142	0x3d255890	0.040367663
143	0xbb5806a6	-0.0032962947
144	0x3cba4492	0.022737775
145	0xbd13848f	-0.03601509
146	0xbbe37109	-0.006940965
147	0xbe7d15cc	-0.24715346
148	0x3dc0e9b4	0.09419575
149	0x3d16adda	0.03678689
150	0xbddd3215	-0.10800568
151	0x3d0605c0	0.032720327
152	0x3d9efd11	0.07763112
153	0x3c225942	0.009908976
154	0xbcf4019a	-0.02978592
155	0x3abc40f6	0.0014362622
156	0x3d6eb489	0.05827764
157	0x3d5fac93	0.05460794
158	0x3d721e7e	0.05911111
159	0x3db38475	0.087654985
160	0x3d35549c	0.044270143
161	0x3cf2f53b	0.02965795
162	0x3d2f3038	0.042770594
163	0xbd68a008	-0.056793243
164	0xbd9e92fb	-0.07742878
165	0x3a89deea	0.0010518704
166	0xbc7a494c	-0.015276264
167	0xbd445899	-0.047936056
168	0x3d5e5aef	0.05428594
169	0x3cd8c3f8	0.026460633
170	0xbd3933c6	-0.04521539
171	0xbc991f24	-0.018691607
172	0x3d21047c	0.039310917
173	0x3c61fbc1	0.013792933
174	0xbb62d9c5	-0.0034614664
175	0x3d986d4f	0.07442724
176	0x3d754e87	0.059889343
177	0x3c2e7997	0.010649106
178	0x3d958518	0.07300776
179	0xbdbf6578	-0.093455255
180	0xb9a1745b	-0.00030795005
181	0xbc9b2942	-0.018940572
182	0xbc889849	-0.016674178
183	0xbd5adf9c	-0.053435907
184	0xbdb09a2f	-0.08623158
185	0x3c654c59	0.0139952535
186	0x3de7142f	0.112831466
187	0x3d823eb2	0.063596144
188	0xbd8381d1	-0.06421245
189	0x3d2fca91	0.04291779
190	0xbc7acded	-0.015307886
191	0xbe419d9a	-0.18907776
192	0xbb489f37	-0.0030612478
193	0x3c59ee35	0.013301422
194	0x3c6280b4	0.0138246305
195	0x3d1264d1	0.035740677
196	0x3d5b57dc	0.053550586
197	0x3d6f2514	0.05838497
198	0xbc190aa2	-0.009340914
199	0xbe2424fd	-0.16029735
200	0x3dd63d39	0.10460896
201	0xbc89c54d	-0.016817713
202	0x3ca40b08	0.020024791
203	0xbd13168e	-0.03591018
204	0x3bed2b47	0.007237825
205	0xbe1925ad	-0.14955778
206	0x3da652b3	0.081212424
207	0xbce56103	-0.02800036
208	0x3d86fe5c	0.06591484
209	0xbd2e2181	-0.04251242
210	0xbd000a74	-0.03125997
211	0xbd1ab9cd	-0.03777485
212	0xbd9d2366	-0.07672767
213	0x3aac59fc	0.0013149376
214	0xbca12b0d	-0.019673849
215	0x3c04d40d	0.0081071975
216	0xbd1cd06a	-0.038284697
217	0xbd6d41da	-0.05792413
218	0x3da6109b	0.08108636
219	0x3db24501	0.08704568
220	0x3d885bbb	0.06658121
221	0xbd38e5d1	-0.045141045
222	0x3cfbce26	0.030737948
223	0x3cdde847	0.027088298
224	0xbd0590fe	-0.03260898
225	0xbdc342b5	-0.09534208
226	0xbdd932e4	-0.1060541
227	0xbcaae325	-0.020860264
228	0xbe3f4151	-0.1867726
229	0xbda906cc	-0.082532495
230	0xbd57347a	-0.05254028
231	0x3cbb5d56	0.022871654
232	0x3d819e80	0.063290596
233	0xbcab12bb	-0.020882955
234	0x3d781b82	0.06057311
235	0x3ca19db8	0.019728526
236	0x3d78c932	0.06073875
237	0x3d35a3a2	0.044345506
238	0x3d4fb601	0.05071068
239	0x3d9d3b95	0.0767738
240	0xbcec96ca	-0.028880496
241	0xbcd101e1	-0.025513591
242	0x3cb3909c	0.021919541
243	0xbb2b7bbd	-0.0026166283
244	0x3df12e2b	0.11776384
245	0xbd061fed	-0.03274529
246	0xbd51b3aa	-0.05119673
247	0x3d2d85dc	0.042363986
248	0xbd950a92	-0.07277407
249	0xbc1a42b7	-0.00941532
250	0xbc081339	-0.008305364
251	0xbda5d9f6	-0.080982134
252	0xbd2dd074	-0.042435125
253	0x3db5b39c	0.088721484
254	0x3d008004	0.031372085
255	0x3ca02447	0.019548548

fc2.bias f4 [128]
0	0x3da662f1	0.0812434
1	0x3d2f064a	0.042730607
2	0xbe0ef607	-0.1396104
3	0xbb9674e1	-0.00459157
4	0xbd1886b3	-0.037237834
5	0x3c738946	0.0148642715
6	0x3d59497d	0.0530486
7	0x3b7eb8d6	0.0038867495
8	0x3d01a9f8	0.031656235
9	0xbd948092	-0.07251085
10	0x3d25e4ce	0.04050141
11	0xbdfb0191	-0.12256158
12	0x3dbc7137	0.092012815
13	0xbda3bb33	-0.0799469
14	0xbd71227d	-0.05887078
15	0xbd258313	-0.040408205
16	0xbb355422	-0.0027668555
17	0xbc4b13b4	-0.012394834
18	0x3d4969a8	0.049173027
19	0x3d8b879b	0.06812974
20	0xbdac55c6	-0.084147975
21	0x3d6c30c5	0.057663698
22	0xbd1a8603	-0.03772546
23	0xbac2de5b	-0.0014867292
24	0x3c80139a	0.015634347
25	0xbd56e927	-0.052468445
26	0x3d23b19f	0.039964315
27	0x3d906ba9	0.070517845
28	0xbb584bdd	-0.0033004202
29	0x3c385250	0.011250094
30	0x3d50c470	0.050968587
31	0x3c98b0c9	0.018638985
32	0x3c146727	0.009057797
33	0x3c437a55	0.011931022
34	0xbd8b078c	-0.06788549
35	0x3db5a2c8	0.08868939
36	0xbccae6e6	-0.024768304
37	0xbd327715	-0.043570597
38	0x3d8746d6	0.06605308
39	0x3a9cca8a	0.0011962217
40	0xbd27021a	-0.04077349
41	0xbddc3a45	-0.107533015
42	0xbd30e439	-0.0431864
43	0x3c4c06b0	0.012452766
44	0x3d81cc2c	0.06337771
45	0x3cd12b58	0.025533363
46	0xbd3876d4	-0.0450352
47	0xbdbf8df8	-0.0935325
48	0x3d34d231	0.044145767
49	0xbda2ec21	-0.07955194
50	0xbe08033c	-0.13282484
51	0xbc1b2adf	-0.0094706705
52	0x3d83b55e	0.064310774
53	0xbd2f1128	-0.04274097
54	0x3da89be5	0.082328595
55	0xbd095a8a	-0.03353361
56	0x3d5ce616	0.053930365
57	0xbd45f8f1	-0.048333112
58	0x3ced924b	0.029000422
59	0xbda75352	-0.08170189
60	0xbd0b0e99	-0.03394947
61	0xbd1b4200	-0.03790474
62	0xbdaa7db2	-0.08324756
63	0x3ce2a426	0.027666163
64	0x3c1f453a	0.009721095
65	0xbc9b2470	-0.018938273
66	0xbd1d1139	-0.038346503
67	0x3d262854	0.040565804
68	0x3bbd0a1e	0.0057690283
69	0xbda4e512	-0.08051504
70	0xbdc3ce00	-0.09560776
71	0x3d1abefe	0.0377798
72	0x3c4f8390	0.012665644
73	0xbd0d248f	-0.034458693
74	0x3c28d469	0.010304549
75	0xbb5ef3a0	-0.0034019724
76	0xbd8f2959	-0.06990308
77	0x3d334ef0	0.043776453
78	0x3d9918cf	0.07475435
79	0x3d30db82	0.04317809
80	0xbd76590e	-0.060143523
81	0xbc436774	-0.011926521
82	0xbcf32b84	-0.029683836
83	0xbd9261bf	-0.0714755
84	0x3cc379ff	0.023861883
85	0x3d53c5ec	0.051702425
86	0xbd005d13	-0.031338762
87	0xbad6b9ef	-0.0016382317
88	0x3d789cd4	0.060696438
89	0x3c132459	0.008980834
90	0x3c2dd7c9	0.010610529
91	0xbc052d73	-0.008128512
92	0xbda751b4	-0.081698805
93	0x3c2016c3	0.009771052
94	0xbc2c488d	-0.010515344
95	0xbceb3109	-0.028709905
96	0xbcd90848	-0.026493207
97	0x3bed2dda	0.007238132
98	0xbd7a3435	-0.061084945
99	0x3cdad661	0.026713552
100	0x3c40bb3f	0.011763393
101	0x3d0cf09a	0.034409143
102	0xbc6cd58e	-0.014455212
103	0xbc41619c	-0.011803057
104	0x3d87d67b	0.06632706
105	0xbcdd5a68	-0.027020648
106	0xbd9e233f	-0.077215664
107	0xbb7d8779	-0.0038685484
108	0xbc51a780	-0.012796283
109	0x3d4c47ac	0.04987304
110	0x3a70e19d	0.00091888924
111	0x3c860bcf	0.016363053
112	0x3c13801d	0.009002713
113	0x3ce5a873	0.028034424
114	0x3d0e815f	0.034791347
115	0x3b891107	0.004182938
116	0x3cd091f3	0.025460219
117	0xbdafef10	-0.085905194
118	0x3be06fa5	0.0068492466
119	0x3cf7b54d	0.030237818
120	0x3dcc63eb	0.09979995
121	0x3b1b7162	0.0023718704
122	0x3d3cfdba	0.04614041
123	0xbd9773d5	-0.0739514
124	0xbd6411c5	-0.05568101
125	0xbcfe58e0	-0.031048238
126	0x3bc6e59a	0.006069851
127	0x3d18241c	0.03714381

fc3.weight f4 [1, 128]
0	0x3cc26ae7	0.023732616
1	0x3c8841b6	0.016632896
2	0xbd4c55e3	-0.049886595
3	0xbe0981e3	-0.13428454
4	0xbd6b9c8e	-0.05752235
5	0x3d901208	0.07034689
6	0x3cfd1a59	0.030896353
7	0xbd00ebcb	-0.03147487
8	0x3d733dd4	0.059385136
9	0xbc7fddb4	-0.015616823
10	0xbcfb14d7	-0.030649586
11	0xbde10dbf	-0.1098895
12	0x3c890e02	0.016730312
13	0xbd01a95d	-0.031655658
14	0xbdaf2fb6	-0.08554022
15	0xbc775e7b	-0.0150982095
16	0x3d9157a1	0.07096792
17	0xbc1740d4	-0.009231765
18	0x3cfb1299	0.030648516
19	0x3c2f1506	0.010686165
20	0xbbee4eab	-0.0072725615
21	0x3cd32785	0.02577568
22	0x3df02320	0.117254496
23	0x3bc506c7	0.006012771
24	0x3c9215a2	0.017832581
25	0xbd2c6775	-0.04209085
26	0x3d0f00bd	0.034912813
27	0xbc9d15e9	-0.019175487
28	0xbd2988a9	-0.041390095
29	0xbddbd422	-0.107338205
30	0x3c2b42a8	0.010452904
31	0xbc937456	-0.01799981
32	0xbc8a6c77	-0.016897423
33	0x3c3f91b1	0.01169245
34	0xbdc3adbe	-0.09554623
35	0x3c812436	0.015764337
36	0xbc287dfc	-0.010283943
37	0x3d6c7adb	0.05773435
38	0x3ce0d4bf	0.027445195
39	0x3cc95789	0.024577873
40	0x3c3325f0	0.010934338
41	0xbc2fba2a	-0.010725537
42	0xbc987f30	-0.018615335
43	0xbc814935	-0.015781978
44	0x3cc07c11	0.02349666
45	0x3c770df3	0.015079009
46	0x3c912ef6	0.017722588
47	0xbc3e348d	-0.011609209
48	0x3c0188cb	0.007906149
49	0xbd0ecf6d	-0.034865785
50	0xbc94b9ce	-0.018155005
51	0xbc325df1	-0.010886655
52	0xbd233381	-0.03984404
53	0x3c53eca5	0.012934838
54	0x3cd97a39	0.026547538
55	0x3cbf6189	0.023361938
56	0xbca4732e	-0.020074453
57	0xbc50bdcd	-0.0127405645
58	0xbc1cdb12	-0.009573715
59	0xbc712863	-0.014719102
60	0xbc4b02d5	-0.012390812
61	0x3d19a8c6	0.03751447
62	0xbc2e23a3	-0.010628614
63	0xbc8988e6	-0.016788911
64	0x3cb796a2	0.022410695
65	0x3c389060	0.01126489
66	0xbc13d96f	-0.009024008
67	0xbd09d03d	-0.033645857
68	0x3d31dc02	0.043422706
69	0xbbd2e498	-0.006435942
70	0xbcb1ea40	-0.021718144
71	0xbd7c6f51	-0.061629597
72	0x3c017e6f	0.007903679
73	0xbc4c53cd	-0.012471152
74	0x3c7bec8d	0.015376222
75	0x3cc68fd4	0.024238504
76	0xbb8a1a66	-0.0042145727
77	0xbdf299f5	-0.11845771
78	0x3c5183a8	0.012787737
79	0x3dd44bc5	0.103660144
80	0xbbe29a79	-0.006915387
81	0xbc7d29c2	-0.01545185
82	0xbc1eefbb	-0.009700711
83	0xbdcecb2b	-0.10097345
84	0x3ca8d8ad	0.020611132
85	0x3cf06588	0.029345289
86	0xbd084fc8	-0.03327921
87	0x3c0b63c1	0.00850767
88	0x3cb74ff7	0.022376997
89	0x3d31553f	0.043294188
90	0xbd4f99e9	-0.05068389
91	0xbd8b2521	-0.06794191
92	0xbc9ff483	-0.019525772
93	0xbcd0d595	-0.025492469
94	0xbd4a3537	-0.049367156
95	0x3c4d89e6	0.012545085
96	0xbd9ac7f4	-0.07557669
97	0x3c231c68	0.009955503
98	0xbca6b05c	-0.020347767
99	0xbcf700f2	-0.030151818
100	0x3c669ab9	0.014074975
101	0xbd14614e	-0.03622561
102	0xbd402ecf	-0.04691964
103	0xbbed5b1a	-0.007243526
104	0x3c3fc2c1	0.011704148
105	0x3c8195d0	0.015818506
106	0xbd2c7c0f	-0.0421105
107	0xbd868de1	-0.0657003
108	0xbc6bd16e	-0.014393194
109	0x3d07905a	0.03309665
110	0xbc3e2e90	-0.011607781
111	0x3c4e74c7	0.012601084
112	0xbc895f23	-0.016768998
113	0x3c68bed2	0.014205651
114	0x3ce9302c	0.028465353
115	0xbd2b62d9	-0.041842315
116	0xbd46bb51	-0.048518483
117	0x3cf15125	0.029457638
118	0xbc8522f0	-0.016252011
119	0x3c451a9f	0.012030273
120	0x3ce00c16	0.027349513
121	0x3ced41f5	0.028962115
122	0x3c4b5239	0.01240974
123	0xbc08c6a3	-0.00834814
124	0xbc0a5715	-0.008443614
125	0xbd4506a7	-0.048102047
126	0x3c9ebd1c	0.019377284
127	0xbcc094b9	-0.023508416
